save/best_mlp_model.pt (torch, 11607 bytes, 8 tensors)

model.0.weight f4 [64, 24]
0	0x3d346ad7	0.044047203
1	0xbd9b76f2	-0.075910464
2	0xbd591767	-0.053000834
3	0x3c770e3e	0.015079079
4	0xbdf37e95	-0.11889378
5	0xbdee3ad0	-0.11632311
6	0x3c1e1042	0.009647431
7	0x3e57d52d	0.21077414
8	0xbbe03294	-0.006841967
9	0xbe10473c	-0.14089674
10	0x3abba2b8	0.0014315462
11	0x3d414a6d	0.04719012
12	0xbdbe4ebb	-0.092923604
13	0x3e88df13	0.26732692
14	0x3e3b5c58	0.18296945
15	0xbe5e4b41	-0.21708395
16	0xbd79cb91	-0.06098515
17	0x3e17c5b2	0.14821509
18	0x3df9085d	0.12159798
19	0xbd60ae93	-0.054853987
20	0xbd158fce	-0.036514096
21	0xbe1caca8	-0.15300238
22	0x3e0ce4e7	0.13759194
23	0xbe07e610	-0.13271356
24	0xbe683cdc	-0.22679466
25	0xbd449b48	-0.04799965
26	0x3ada44ca	0.0016652581
27	0xbcc3777f	-0.023860691
28	0x3e4cd344	0.20002466
29	0xbda9fff1	-0.0830077
30	0x3c3c5b95	0.011496444
31	0x3b2a7364	0.002600872
32	0xbe263295	-0.16230233
33	0xbe728fb8	-0.23687637
34	0xbd6174e6	-0.055043124
35	0x3c13d095	0.009021898
36	0x3e16532f	0.1468017
37	0xbe2ae410	-0.16688561
38	0xbe5e67e9	-0.21719326
39	0x3d4f2d98	0.05058059
40	0x3d3e6ec8	0.046492368
41	0x3df65ab0	0.12029016
42	0xbdf0754b	-0.11741122
43	0x3d63d978	0.055627316
44	0xbc2fcda8	-0.010730185
45	0xbd7524a8	-0.05984941
46	0xbb865d4c	-0.0041004773
47	0xbd4a5bda	-0.049404003
48	0x3d6ec1c5	0.05829026
49	0x3c816675	0.015795926
50	0x3ddcdf62	0.107847944
51	0x3e09c522	0.13454106
52	0x3e0dd417	0.13850437
53	0x3b95e7ae	0.0045747375
54	0x3db526dc	0.088453025
55	0xbcd1d690	-0.025615007
56	0xbcc8ce9e	-0.024512585
57	0x3d245d5b	0.040128093
58	0xbe2aff2c	-0.16698903
59	0xbd72c2e7	-0.059267905
60	0xbd6041aa	-0.054750122
61	0xbe95b6a2	-0.292409
62	0xbe3d559c	-0.18489689
63	0x3defae03	0.11703112
64	0xbe5e7a52	-0.21726349
65	0xbde0c88f	-0.109757535
66	0xbccda9a9	-0.025105314
67	0xbbaae251	-0.0052149673
68	0x3de62367	0.11237221
69	0x3c1e1902	0.009649517
70	0xbe176cfc	-0.14787668
71	0x3dbf11fe	0.093296036
72	0xbeafa4a4	-0.34305298
73	0x3dea9291	0.114537366
74	0x3e0fdcd1	0.14049079
75	0x3dc389f8	0.095478
76	0x3e861a8f	0.26192138
77	0x3e058c09	0.130417
78	0xbcde0bf7	-0.027105315
79	0x3c1e146c	0.009648424
80	0x3b8bd2d8	0.004267078
81	0xbe50b079	-0.20379819
82	0x39b07a92	0.00033660658
83	0x3de75427	0.11295348
84	0x3e0979c5	0.13425358
85	0x3d071ca3	0.032986294
86	0xbd9de0d7	-0.077089004
87	0xbd8995b9	-0.067180105
88	0xbe0fe704	-0.14052969
89	0xbd3ed9b2	-0.04659433
90	0x3e057c8c	0.13035792
91	0xbce9e6fc	-0.028552525
92	0xbe147bbf	-0.1450033
93	0xbd0f4470	-0.034977376
94	0x3b8f78af	0.0043784003
95	0xbdee1c1b	-0.116264544
96	0x3daa836c	0.08325848
97	0x3db34003	0.08752444
98	0x3d219d36	0.03945657
99	0x3cd04053	0.025421297
100	0xbeaf90d4	-0.34290183
101	0xbd928e35	-0.0715603
102	0x3d8e0002	0.06933595
103	0x3d9a9660	0.07548213
104	0xbdba0952	-0.09083809
105	0xbe08cb34	-0.13358766
106	0xbe1d325d	-0.15351243
107	0xbc520ed7	-0.012820921
108	0xbdd81837	-0.105514936
109	0x3e82e012	0.25561577
110	0x3e1bd610	0.15218377
111	0x3de812a1	0.11331678
112	0x3d0169c4	0.031595007
113	0x3d49a7ab	0.049232166
114	0xbdd9f404	-0.106422454
115	0x3c489867	0.012243367
116	0xbd2e3ac0	-0.042536497
117	0x3d8bfa13	0.06834807
118	0xbd198f80	-0.037490368
119	0x3dd64086	0.104615256
120	0xbaae9ad1	-0.0013321285
121	0x3ddba3e4	0.10724619
122	0x3de96e4b	0.1139799
123	0xbe5ba327	-0.21448956
124	0x3dc885fe	0.09791182
125	0xbc5af243	-0.013363424
126	0x3d3533c5	0.044238824
127	0xbe220830	-0.15823436
128	0xbe26069c	-0.16213459
129	0x3cd55f6c	0.026046477
130	0x3dc54737	0.09632724
131	0xbc7687b7	-0.015047005
132	0x3d55cff1	0.05220026
133	0x3d493261	0.04912031
134	0x3b6b7dc6	0.003593312
135	0x3d0ba6e3	0.034094702
136	0xbce1d5f9	-0.02756785
137	0xbe5a5018	-0.21319616
138	0xbd85b3d6	-0.065284416
139	0xbbe382d7	-0.0069430876
140	0xbdf37b31	-0.11888731
141	0xbcd45ed4	-0.025924124
142	0x3d0b6dbe	0.034040205
143	0x3e3a6134	0.18201143
144	0xbd3867f7	-0.045021024
145	0x3da34104	0.07971385
146	0x3d8b4883	0.0680094
147	0xbdcc8341	-0.09985972
148	0x3c8bebba	0.017080177
149	0x3e0b8ba7	0.13627492
150	0xbc572bad	-0.013132972
151	0x3e3e4a1d	0.1858296
152	0x3d54b0c6	0.051926397
153	0x3e3f0cbb	0.186572
154	0xbe456718	-0.19277608
155	0xbc476cf2	-0.012171971
156	0xbcd3f0a4	-0.025871582
157	0x3e21577f	0.15756033
158	0x3e137777	0.14401041
159	0xbcf2f675	-0.029658535
160	0xbdec061b	-0.11524602
161	0xbcc59306	-0.024117958
162	0xbd8d8ffd	-0.06912229
163	0xbd80d66c	-0.06290898
164	0xbe528c29	-0.2056128
165	0x3dda5d42	0.10662319
166	0xbe0e96c2	-0.13924697
167	0xbd0af04b	-0.033920567
168	0xbde12bbf	-0.10994672
169	0x3d2cae85	0.042158622
170	0xbdf26bd9	-0.118369766
171	0x3d67554a	0.056477822
172	0xbdca47d3	-0.09876981
173	0xbdd5cc16	-0.10439317
174	0xbc9421f3	-0.018082594
175	0x3e388dd4	0.18022853
176	0x3d8890a9	0.06668217
177	0x3cdf3b37	0.027249916
178	0x3e35cb3a	0.17753306
179	0xbd1c6a54	-0.03818734
180	0x3e08a614	0.13344604
181	0x3c13e036	0.009025624
182	0xbde13c38	-0.10997814
183	0x3e943b5a	0.28951532
184	0xbd900a51	-0.07033218
185	0x3de72c4c	0.11287746
186	0xbe2d5b69	-0.16929401
187	0xbdd89b00	-0.10576439
188	0x3de09420	0.109657526
189	0xbd0f39f4	-0.034967378
190	0x3d269120	0.040665746
191	0x3e46a9b6	0.19400677
192	0x3dd3679a	0.10322495
193	0x3c8cb5fc	0.01717662
194	0xbe2abc0f	-0.16673301
195	0xbe723b01	-0.2365532
196	0xbdd8775e	-0.105696425
197	0xbd9fea4e	-0.07808362
198	0xbda035b3	-0.07822742
199	0x3ce0e3ba	0.027452338
200	0xbe14cffc	-0.14532465
201	0xbce65974	-0.028118826
202	0x3dcb6d8c	0.09933004
203	0x3de0b375	0.10971729
204	0x3d6e016b	0.05810682
205	0x3dca3636	0.09873621
206	0xbacb041b	-0.0015488894
207	0xbdcec303	-0.10095789
208	0xbe0edfae	-0.13952515
209	0xbe3671a4	-0.17816788
210	0x3d96ff1d	0.07372878
211	0xbded20ff	-0.11578559
212	0xbd33cbd7	-0.04389557
213	0xbd35e389	-0.044406448
214	0xbda5c251	-0.080937035
215	0xbdb3c5c6	-0.08777957
216	0xbe577ea7	-0.21044408
217	0xbdae5b8e	-0.085135564
218	0x3e257895	0.1615928
219	0x3d9ae802	0.07563783
220	0x3e703270	0.2345674
221	0x3d9f191b	0.0776846
222	0x3e0b7a00	0.13620758
223	0xbe83d385	-0.25747314
224	0x3dbca285	0.09210686
225	0xbdc4ed51	-0.09615577
226	0xbd9cbd25	-0.07653264
227	0x3de01850	0.10942137
228	0x3d4c929a	0.049944498
229	0xbe960721	-0.29302314
230	0xbe46a38f	-0.1939833
231	0xbd0129df	-0.031534072
232	0xbe8b2a6f	-0.27180812
233	0xbba11b53	-0.0049165874
234	0x3e057246	0.13031873
235	0x3d09e294	0.033663347
236	0xbdaa30ff	-0.083101265
237	0xbc9f61e9	-0.019455867
238	0x3e09ad60	0.13445044
239	0xbd08d2c9	-0.033404145
240	0xbdb37bc5	-0.087638415
241	0x3e3afb4f	0.18259929
242	0xbdce254e	-0.10065709
243	0xbd686b35	-0.056742866
244	0x3e8854e1	0.26627257
245	0x3dd7ea2b	0.10542711
246	0x3e1d5041	0.15362646
247	0xbc00ca6a	-0.007860759
248	0x3d7718dd	0.060326446
249	0xbe0df4af	-0.1386287
250	0x3d39fe0a	0.045408286
251	0x3ca3d6e6	0.019999932
252	0xbe56b361	-0.20966865
253	0xbe365a69	-0.17807926
254	0xbe684d0a	-0.22685638
255	0x3ccb7b6c	0.024839126

model.0.bias f4 [64]
0	0xbcb580dd	-0.022156173
1	0x3e32cf07	0.17461787
2	0xbdb2dfb5	-0.08734075
3	0x3da0e320	0.07855821
4	0x3e407cd8	0.18797624
5	0xbdd9aa22	-0.106281534
6	0x3deffa0e	0.11717616
7	0x3e2c6462	0.16835168
8	0x3d853aaa	0.0650533
9	0x3d6361b5	0.055513103
10	0xbdd4d9fa	-0.10393138
11	0xbd475a8a	-0.04867033
12	0xbdb165d1	-0.08661998
13	0x3dc75309	0.097326346
14	0xbe351ce7	-0.17686807
15	0x3e3fe42c	0.18739384
16	0x3c6cc7d7	0.014451942
17	0xbd81ee5b	-0.06344291
18	0x3d667d31	0.056271736
19	0x3d955d5b	0.07293197
20	0xbe19dc92	-0.15025547
21	0xbdff46b6	-0.12464659
22	0xbd087728	-0.03331676
23	0xbe1e7d2c	-0.15477437
24	0xbc1d63d5	-0.009606321
25	0x3bf2c9b4	0.007409299
26	0x3d994e96	0.07485692
27	0x3dbad953	0.091234826
28	0x3d91b8d8	0.07115334
29	0x3e0a6ff2	0.13519266
30	0x3cc993f2	0.024606679
31	0xbde83c1e	-0.113395914
32	0x3b85e150	0.0040856972
33	0xbd636fd2	-0.055526562
34	0x3bbbd1ab	0.0057317815
35	0xbb89f6dc	-0.004210336
36	0xbdb10d2c	-0.086450905
37	0x3d8a98ec	0.06767449
38	0xbddb793b	-0.10716482
39	0x3dc24ffd	0.09487913
40	0x3cb568f0	0.022144765
41	0xbcaac694	-0.020846643
42	0x3d937092	0.071992055
43	0x3d9c6c16	0.07637803
44	0x3e336b17	0.1752132
45	0x3dd64304	0.10462001
46	0xbce0eb1a	-0.027455855
47	0x3d6e9f68	0.05825749
48	0xbd8a0091	-0.06738389
49	0x3e1ddc27	0.15416013
50	0xbdf5856e	-0.1198834
51	0xbdbbcf1c	-0.09170362
52	0x3db4ccdb	0.088281356
53	0xbdaaca0c	-0.08339319
54	0xbdd40cc2	-0.10353996
55	0xbd9de36e	-0.077093944
56	0xbd552942	-0.0520413
57	0x3e44ffcf	0.19238208
58	0xbd47e0c4	-0.048798338
59	0x3df1cfa4	0.118071824
60	0xbe45c28b	-0.19312494
61	0x3df646e6	0.120252416
62	0x3da50a1b	0.08058568
63	0xbe52655c	-0.20546478

model.1.weight f4 [64]
0	0x3f833d3d	1.0253063
1	0x3f919c7c	1.137588
2	0x3f8ac087	1.0840005
3	0x3f9e139b	1.2349733
4	0x3f936274	1.151442
5	0x3f761288	0.96122026
6	0x3f869f46	1.0517356
7	0x3f8cc8fc	1.0998836
8	0x3f73707a	0.950935
9	0x3f93fd9a	1.1561768
10	0x3f8a0301	1.0782167
11	0x3f7ed871	0.99549013
12	0x3f90dba6	1.1317031
13	0x3f86f7fb	1.0544428
14	0x3f79bb3c	0.9755132
15	0x3f8e5513	1.1119713
16	0x3f8b8a63	1.0901607
17	0x3f9bd099	1.2173034
18	0x3f82d02f	1.0219783
19	0x3f900411	1.1251241
20	0x3f9a1032	1.2036192
21	0x3f85b23d	1.0445019
22	0x3f8c94d8	1.0982924
23	0x3f86d9e9	1.0535251
24	0x3f914202	1.1348269
25	0x3f82e5f5	1.0226427
26	0x3f74e082	0.9565507
27	0x3f97c1a7	1.1855973
28	0x3f8e3834	1.1110902
29	0x3f7c90ce	0.98658454
30	0x3f96016a	1.1719182
31	0x3f741d4a	0.9535719
32	0x3f937cf0	1.1522503
33	0x3f78106a	0.96900046
34	0x3f7919f1	0.9730521
35	0x3f77c9d7	0.9679236
36	0x3f83472d	1.0256096
37	0x3f735633	0.95053405
38	0x3f78bc2f	0.97162145
39	0x3f8eba7b	1.1150659
40	0x3f8b795e	1.0896413
41	0x3f8b6fba	1.0893471
42	0x3f839729	1.0280505
43	0x3f9675bb	1.1754678
44	0x3f77c1e6	0.9678024
45	0x3f7f5b9c	0.9974916
46	0x3f7739c6	0.9657253
47	0x3f860932	1.0471556
48	0x3f9079a1	1.1287118
49	0x3f8d21cd	1.102594
50	0x3f895a10	1.073061
51	0x3f8fc969	1.123334
52	0x3f6fd31c	0.936815
53	0x3f7ba794	0.9830258
54	0x3f886d68	1.0658388
55	0x3f93b9f3	1.1541122
56	0x3f8b93f7	1.090453
57	0x3f95cc5a	1.1702988
58	0x3f8598dd	1.0437275
59	0x3f83d4c4	1.0299306
60	0x3f955499	1.1666442
61	0x3f786e1f	0.9704303
62	0x3f901ba8	1.125844
63	0x3f8951b7	1.0728062

model.1.bias f4 [64]
0	0x3e26f123	0.16302924
1	0x3d544fa3	0.05183376
2	0x3c2161b8	0.009849958
3	0x3d73dc2f	0.059536155
4	0x3e5bf8ee	0.21481678
5	0xbd67870c	-0.056525275
6	0x3e1089ec	0.14115113
7	0x3e34df92	0.1766341
8	0xbd78280a	-0.06058506
9	0x3d8abb39	0.06773991
10	0x3d2ee670	0.04270023
11	0xbdc06df1	-0.0939597
12	0x3e30f375	0.17280371
13	0x3e3172af	0.17328905
14	0x3d92203f	0.07135057
15	0x3e09fe4e	0.13475916
16	0x3e25abba	0.1617879
17	0x3e781c71	0.242296
18	0xbdb6ac49	-0.089195795
19	0x3e5913c0	0.2119894
20	0xbd3c88b9	-0.046028826
21	0x3e312fc4	0.17303377
22	0x3c658d15	0.014010687
23	0x3e2d81ef	0.16944097
24	0x3e41d6c4	0.18929583
25	0xbcd1860d	-0.025576616
26	0xbc7b6f41	-0.015346349
27	0x3e55955d	0.20857759
28	0x3b4bdfa6	0.0031108647
29	0xbc4b25c1	-0.012399138
30	0x3d33a722	0.043860562
31	0xbc256ec6	-0.010097211
32	0x3d53d302	0.051714905
33	0xbd763248	-0.060106546
34	0x3d8a410a	0.067506865
35	0xbd0ae8ac	-0.0339133
36	0xbdfe9c05	-0.12432102
37	0xbda0f948	-0.078600466
38	0xbd420e27	-0.047376778
39	0xbd3f8c73	-0.046764802
40	0x3e61cf5b	0.22051756
41	0x3cbd7012	0.023124728
42	0xbd2e9499	-0.042622183
43	0x3cd6933a	0.02619325
44	0xbd991e80	-0.074765205
45	0xbd39ebea	-0.045391
46	0x3ceb681b	0.028736165
47	0x3e31f920	0.1738019
48	0x3e751f22	0.23937657
49	0x3cd5e17e	0.0261085
50	0x3bfd5d3c	0.0077320617
51	0x3e32b40c	0.17451495
52	0xbd824465	-0.063607015
53	0xbbf7a459	-0.0075574336
54	0x3e3c7b08	0.18406308
55	0x3d2b4845	0.04181697
56	0x3ba5caf4	0.0050595943
57	0x3cccb04a	0.024986405
58	0x3e622f16	0.22088274
59	0xbc9b48a4	-0.018955536
60	0x3e1d6b50	0.15372968
61	0xbda372c8	-0.07980877
62	0x3b274700	0.0025524497
63	0x3e57f438	0.21089256

model.1.running_mean f4 [64]
0	0xbd2a72d1	-0.041613404
1	0x3e293824	0.16525322
2	0xbdc93a04	-0.09825519
3	0x3db28800	0.08717346
4	0x3e49d362	0.19709542
5	0xbddadc0a	-0.106865
6	0x3e1a7b35	0.15086062
7	0x3e3cbfee	0.1843259
8	0x3d49bf40	0.049254656
9	0x3d06f943	0.03295256
10	0xbdc1fd90	-0.09472191
11	0xbd2fea7d	-0.042948235
12	0xbdc66997	-0.096881084
13	0x3dcd3c7f	0.10021304
14	0xbe40df5a	-0.18835202
15	0x3e3819b9	0.17978562
16	0x3cae4fc4	0.02127827
17	0xbd87baf6	-0.06627457
18	0x3d831bbc	0.06401774
19	0x3d9fdbbd	0.078055836
20	0xbe285aa6	-0.1644083
21	0xbdf688ec	-0.120378345
22	0xbc9a8406	-0.018861782
23	0xbe202bee	-0.15641758
24	0x3b02f869	0.001998449
25	0xbc9633bf	-0.018335221
26	0x3db9e9cf	0.090777986
27	0x3db6da3d	0.089283444
28	0x3d43a298	0.047762483
29	0x3deb2dc4	0.114833385
30	0x3c856b31	0.016286464
31	0xbdfefa72	-0.124501124
32	0x3c131de3	0.0089792935
33	0xbd7e800e	-0.06213384
34	0xbbd6c649	-0.006554399
35	0xbd154a21	-0.036447648
36	0xbdc1c0e4	-0.09460619
37	0x3da08ed9	0.07839746
38	0xbdc2e145	-0.09515623
39	0x3de26276	0.11053936
40	0x3c8e09b0	0.017338604
41	0xbcdb2f11	-0.026755841
42	0x3d96bd19	0.07360286
43	0x3da59dbd	0.08086727
44	0x3e25e982	0.16202357
45	0x3db913a9	0.09036953
46	0xbcd21b9a	-0.025647927
47	0x3da628c5	0.08113245
48	0xbd68a2f0	-0.056796014
49	0x3e1d0b7a	0.15336409
50	0xbe1780e1	-0.14795257
51	0xbdcaa6f5	-0.09895126
52	0x3dccca12	0.09999479
53	0xbd9abe11	-0.075557835
54	0xbdb1ce0b	-0.08681878
55	0xbdb5bb99	-0.08873672
56	0xbd6e2c80	-0.058147907
57	0x3e49aa38	0.1969384
58	0xbd0ce5ea	-0.03439895
59	0x3ddf0627	0.10889845
60	0xbe46a892	-0.19400242
61	0x3e043b21	0.12913181
62	0x3dd38543	0.10328152
63	0xbe4f3886	-0.20236406

model.1.running_var f4 [64]
0	0x3edc81e7	0.43067858
1	0x3f07d2e8	0.5305619
2	0x3f370e62	0.7150632
3	0x3eb65d03	0.35617837
4	0x3e89fcfb	0.2695082
5	0x3e7e9ae0	0.24863768
6	0x3e653a0c	0.22385424
7	0x3ed99970	0.42499876
8	0x3ed303d7	0.41213867
9	0x3f8387f6	1.0275867
10	0x3f86941b	1.0513948
11	0x3ea49d7f	0.3215141
12	0x3e9f091c	0.31061637
13	0x3f0df0dc	0.5544565
14	0x3eb41eb3	0.35179672
15	0x3e682491	0.22670199
16	0x3e557924	0.20846993
17	0x3eca16a3	0.39470395
18	0x3e907af5	0.2821881
19	0x3ebf50d3	0.3736635
20	0x3f5fb37c	0.87383246
21	0x3eac3821	0.33636573
22	0x3ea84c5d	0.3287076
23	0x3f84ff91	1.0390493
24	0x3eaa48a2	0.3325854
25	0x3f477104	0.77906823
26	0x3e90cae3	0.2827979
27	0x3e2b22f1	0.16712548
28	0x3f992a99	1.1966125
29	0x3e41457d	0.18874164
30	0x3eefcac1	0.46834376
31	0x3ebc991e	0.3683557
32	0x3eb915e7	0.36149523
33	0x3ed59118	0.4171226
34	0x3ecccb57	0.39998886
35	0x3f4996c3	0.7874567
36	0x3ef6b9d4	0.4818865
37	0x3e589f4e	0.2115452
38	0x3ea637d4	0.32464468
39	0x3e3a10c3	0.18170457
40	0x3e6adb4b	0.22935216
41	0x3ee736ff	0.45159146
42	0x3e9ec48b	0.31009325
43	0x3e882c90	0.26596498
44	0x3ec80257	0.39064285
45	0x3f0821d4	0.5317662
46	0x3eac765c	0.3368405
47	0x3e9882d4	0.29787314
48	0x3f3b94a5	0.7327369
49	0x3f56eecc	0.83958125
50	0x3f79f06b	0.97632474
51	0x3e59f03e	0.21283051
52	0x3ee61360	0.44936657
53	0x3eede475	0.4646336
54	0x3ecba852	0.39776856
55	0x3e888980	0.26667404
56	0x3e9193e8	0.28433156
57	0x3e80b1a4	0.2513553
58	0x3f2930b3	0.66089934
59	0x3e8b7b3b	0.27242455
60	0x3e2a8095	0.16650613
61	0x3e9f29d1	0.3108659
62	0x3e8d30cf	0.275763
63	0x3ef42b1f	0.4768915

model.4.weight f4 [2, 64]
0	0x3deae819	0.1147005
1	0xbc80d2ed	-0.015725577
2	0xbdbeb455	-0.09311739
3	0xbe84d80a	-0.25946075
4	0x3e4571f9	0.19281758
5	0xbd9728d8	-0.07380837
6	0x3e1de38e	0.15418836
7	0x3dbdea93	0.09273257
8	0xbbbbd164	-0.0057317484
9	0xbdb5a44d	-0.088692285
10	0xbe267b34	-0.16257936
11	0xbd996dc2	-0.07491638
12	0x3e2abd60	0.16673803
13	0x3dd786ff	0.10523795
14	0x3cdadd52	0.026716862
15	0x3c80cb76	0.015722018
16	0x3e2c17a1	0.16805889
17	0x3d9e44ce	0.07727967
18	0xbe11ae2e	-0.142266
19	0x3e2d1188	0.16901219
20	0xbe80e294	-0.25172865
21	0x3e1e6d56	0.15471396
22	0xbcdc55d5	-0.026896397
23	0x3e180c5c	0.14848465
24	0x3e100b04	0.14066702
25	0xbe09bb3a	-0.13450328
26	0x3d0f84d6	0.03503879
27	0x3e4e9e22	0.2017751
28	0xbd8aa5b5	-0.06769887
29	0xbd1c36d2	-0.03813822
30	0xbddf8205	-0.10913471
31	0x3d3b02a2	0.045656808
32	0xbd9e8aaf	-0.077412955
33	0xbda1681e	-0.07881187
34	0x3ca4ea0a	0.02013113
35	0x3c96cf74	0.018409468
36	0xbdd85af5	-0.10564224
37	0xbd3c64f9	-0.045994733
38	0xbba94445	-0.005165609
39	0xbe2260ca	-0.15857235
40	0x3d76f329	0.06029049
41	0xbdc49854	-0.09599367
42	0xbdb0d277	-0.08633893
43	0xbd90772d	-0.07053981
44	0xbd93f441	-0.07224322
45	0xbd8acdac	-0.0677751
46	0xbc8fa1bc	-0.017533176
47	0x3daeddec	0.08538422
48	0x3da5a4dd	0.08088086
49	0xbe0280b5	-0.1274441
50	0xbd898e52	-0.067165986
51	0x3e360164	0.17773968
52	0xbccd5959	-0.025067018
53	0xbd158675	-0.03650518
54	0x3e45ca2d	0.19315405
55	0xbe096a12	-0.13419369
56	0xbd9b4640	-0.075817585
57	0xbe379fa1	-0.17931987
58	0x3d825ba9	0.06365139
59	0xbdeff513	-0.11716666
60	0x3e18aeea	0.14910474
61	0xbcb73a38	-0.022366628
62	0xbe4e8364	-0.20167309
63	0x3da8b2ea	0.0823725
64	0xbdbf35ed	-0.093364574
65	0x3e36b218	0.17841375
66	0x3e3509d9	0.17679538
67	0x3d411890	0.047142565
68	0xbdfad848	-0.122482836
69	0xbd4ebc4b	-0.05047254
70	0xbdaffbf3	-0.085929774
71	0xbdd144e5	-0.10218219
72	0x3ce139f4	0.027493455
73	0x3e5446f1	0.20730187
74	0x3ca8d1a0	0.02060777
75	0xbcbe5d64	-0.023237891
76	0xbe6f8849	-0.23391832
77	0xbe0b3816	-0.13595614
78	0xbd3b08b3	-0.045662593
79	0xbe37b927	-0.17941724
80	0xbe1bb030	-0.15203929
81	0xbe7cf99a	-0.2470459
82	0xbc0cfe7a	-0.008605594
83	0xbd3f2008	-0.046661407
84	0x3c97af3b	0.018516174
85	0xbdfcfabf	-0.123525135
86	0x3e3b6c1a	0.18302956
87	0xbcbde2d9	-0.023179458
88	0xbe31b219	-0.17353095
89	0x3e0ff24c	0.14057273
90	0x3d2efe30	0.04272288
91	0xbe475b8b	-0.19468515
92	0x3e50217b	0.20325272
93	0xbdcb8909	-0.09938247
94	0x3e412561	0.18861915
95	0xbd0fda40	-0.03512025
96	0x3e1f54cb	0.1555969
97	0xbd2b426d	-0.041811395
98	0xbda033fb	-0.078224145
99	0x3d55526e	0.052080564
100	0x3daf14e2	0.08548905
101	0x3ce10b9f	0.027471362
102	0x3c97740b	0.01848795
103	0x3dcb5e1a	0.09930058
104	0xbdd2ce8b	-0.10293301
105	0x3e085ef0	0.13317466
106	0x3de01fa2	0.109435335
107	0x3e29ee80	0.16594887
108	0x3db1216c	0.08648953
109	0x3c3936c3	0.01130456
110	0xbd9c511c	-0.07632658
111	0xbdcefc20	-0.10106683
112	0xbe0b4109	-0.13599028
113	0x3e0c8cf7	0.13725649
114	0x3e239d8a	0.15978065
115	0xbe44da9b	-0.19224016
116	0x3cd76fa9	0.02629836
117	0xbdc2088b	-0.09474286
118	0xbe212081	-0.15735056
119	0x3e34c059	0.176515
120	0x3e267518	0.16255605
121	0x3e23b041	0.15985204
122	0xbd5d10fa	-0.05397127
123	0xbc518153	-0.012787181
124	0xbdf00229	-0.11719162
125	0x3cef6870	0.029224604
126	0x3be43205	0.0069639706
127	0xbdb58679	-0.08863539

model.4.bias f4 [2]
0	0x3e07cc8b	0.1326162
1	0xbe3f4fa2	-0.18682721
