save/best_ae_model.pt (torch, 101994 bytes, 18 tensors)

encoder.0.weight f4 [128, 24]
0	0x3e38be04	0.18041235
1	0x3e03c2c8	0.12867272
2	0x3cf52ce2	0.029928628
3	0xbe2f5ce9	-0.17125286
4	0x3deb858a	0.1150008
5	0x3e272f79	0.16326703
6	0x3dc9e7dc	0.09858677
7	0x3db4c50d	0.08826647
8	0xbd931618	-0.071819484
9	0x3e0a7ccf	0.13524173
10	0xbdbfce17	-0.093654804
11	0x3d63e815	0.055641253
12	0xbe420d60	-0.18950415
13	0x3e27787c	0.16354555
14	0xbe44bbec	-0.19212312
15	0x3d549246	0.05189731
16	0xbdb80079	-0.08984465
17	0xbe1ba9e6	-0.1520153
18	0x3d436ab3	0.04770918
19	0xbd707143	-0.058701765
20	0x3bb44634	0.005501533
21	0xbcfc731b	-0.030816605
22	0xbb25aa53	-0.0025278523
23	0x3e4b309d	0.19842763
24	0xbdfa9c96	-0.12236898
25	0xbe185179	-0.1487483
26	0x3d65dc2f	0.056118187
27	0xbde12d7a	-0.10995002
28	0x3e4b9e97	0.19884716
29	0x3dc1ab91	0.09456552
30	0x3df47158	0.11935681
31	0xbbc4ddf2	-0.0060079033
32	0xbd94c481	-0.07264043
33	0xbe1acbc8	-0.15116799
34	0xbdd3018c	-0.103030294
35	0x3e8849b0	0.2661872
36	0xbd5e4ce5	-0.05427255
37	0xbe48f21d	-0.19623609
38	0x3cfe0c18	0.031011626
39	0x3dc7a2fc	0.09747884
40	0x3e251e63	0.16124873
41	0x3cea9c05	0.028638849
42	0x3dbba959	0.0916316
43	0x3d2bb6cf	0.041922387
44	0x3c8c68a9	0.01713975
45	0xbc4d4214	-0.012527961
46	0xbccfd89b	-0.02537184
47	0xbe1121ea	-0.14173093
48	0xbe965256	-0.29359692
49	0xbdbbb61f	-0.09165596
50	0xbe62b3c8	-0.22138894
51	0xbd9f6ecf	-0.07784807
52	0xbe0d485c	-0.13797134
53	0x3e08eb81	0.13371088
54	0xbda5d1e9	-0.08096678
55	0xbde6e3f9	-0.11273951
56	0xbd173bae	-0.03692215
57	0x3d075113	0.033036303
58	0x3d7b58da	0.061364032
59	0x3dad08c2	0.08448936
60	0xbd844480	-0.06458378
61	0xbd4c8548	-0.049931794
62	0xbda4e84a	-0.08052118
63	0x3e2d3ddd	0.1691813
64	0xbe317afb	-0.1733207
65	0x3dcf1214	0.1011087
66	0xbd8202f8	-0.063482225
67	0x3e35abb5	0.17741282
68	0xbda3a539	-0.07990498
69	0xbd922e7d	-0.07137773
70	0xbd98dbb0	-0.07463777
71	0x3dc24eb7	0.0948767
72	0x3d17d77a	0.03707073
73	0xbd5ce463	-0.053928744
74	0xbe558b47	-0.20853911
75	0xbdd14a6c	-0.10219273
76	0xbd3f113b	-0.04664729
77	0xbe1fd300	-0.15607834
78	0x3e1dd070	0.15411544
79	0xbe6235fb	-0.22090904
80	0x3d955e35	0.07293359
81	0xbdd876b5	-0.105695166
82	0x3c0a7acf	0.008452131
83	0x3e10bf5a	0.14135495
84	0x3d65c9fa	0.056100823
85	0xbe77bd15	-0.24193223
86	0xbd23f2c3	-0.040026437
87	0x3d357bea	0.044307627
88	0xbe3ff1ae	-0.18744537
89	0x3d55c325	0.052188057
90	0xbe28ccc8	-0.16484368
91	0x3d79fc1e	0.061031453
92	0xbd87a483	-0.06623175
93	0x3e47e610	0.19521356
94	0x3dc75743	0.09733441
95	0xbe14037c	-0.14454454
96	0xbe68703f	-0.22699068
97	0x3d4a85de	0.049444072
98	0x3dffec64	0.1249626
99	0x3dc8674c	0.09785327
100	0xbe039d1e	-0.12852904
101	0xbdd7d537	-0.105387144
102	0xbe0daf01	-0.1383629
103	0xbd893e72	-0.067013636
104	0x3e49ef00	0.19720078
105	0x3e1ae326	0.15125713
106	0x3dc1d542	0.09464504
107	0x3e32e4cd	0.17470093
108	0xbd9d1106	-0.076692626
109	0x3d96c9c6	0.07362704
110	0x3c3e4a64	0.011614416
111	0x3e2aa7a1	0.16665508
112	0x3c41b9f2	0.011824118
113	0xbdd95708	-0.10612303
114	0x3d645b9e	0.055751435
115	0x3e0b5310	0.13605905
116	0xbe3ca723	-0.18423133
117	0x3e2a8220	0.16651201
118	0xbdfa755a	-0.12229414
119	0xbd9d5e2f	-0.0768398
120	0x3de10d9c	0.10988924
121	0xbe4ee8f8	-0.20206058
122	0xbdc83c41	-0.097771175
123	0xbe2baa92	-0.16764286
124	0xbd35ac04	-0.0443535
125	0x3e2d47b8	0.1692189
126	0xbd7f4a5d	-0.062326778
127	0xbd84223f	-0.064518444
128	0x3df2233f	0.11823129
129	0xbdd7581b	-0.10514852
130	0x3d1cc175	0.038270433
131	0xbdb37003	-0.08761599
132	0x3ca53b7e	0.02016997
133	0x3d3fb142	0.046799906
134	0xbd22e376	-0.039767705
135	0x3e25011b	0.16113703
136	0x3d9f56d3	0.07780232
137	0x3d98b262	0.07455899
138	0x3df544e1	0.11976028
139	0xbd8084e6	-0.06275348
140	0x3e6fa6be	0.23403451
141	0x3e1edded	0.15514345
142	0x3d197a00	0.037469864
143	0xbdba2944	-0.09089902
144	0xbd9e59b4	-0.07731953
145	0xbd5eea11	-0.054422442
146	0x3e2d28e4	0.1691013
147	0x3d32ff5f	0.043700572
148	0x3e081a83	0.13291363
149	0xbe27d7f1	-0.16390969
150	0x3debaa1b	0.115070544
151	0xbdd24776	-0.10267536
152	0x3dd4843a	0.10376783
153	0x3d42749e	0.047474496
154	0xbca0014d	-0.01953187
155	0x3da70b08	0.08156401
156	0xbdb19ec4	-0.0867286
157	0xbe5aedcd	-0.21379776
158	0xbd03c967	-0.032174494
159	0x3e0c35f1	0.13692452
160	0x3e29b7ce	0.16574022
161	0xbd3373b1	-0.043811504
162	0xbd4a0711	-0.049323145
163	0x3dc7e076	0.097596094
164	0x3e5d39e6	0.21604118
165	0xbd62bf86	-0.055358432
166	0x3da56482	0.08075811
167	0x3ddd78e9	0.108140774
168	0xbdb80ee0	-0.08987212
169	0x3da51a12	0.08061613
170	0x3d3772b7	0.044787135
171	0xbe26c7e2	-0.16287187
172	0xbe61b8e7	-0.22043191
173	0xbdce791e	-0.10081695
174	0x3d8ac7c7	0.06776386
175	0xbe258f9e	-0.16168067
176	0x3c90a7d1	0.017658146
177	0x3a8b5c24	0.0010632318
178	0x3d1e0014	0.038574293
179	0x3d0b83ce	0.034061246
180	0xbe18ceda	-0.14922658
181	0x3d5b8fa3	0.05360378
182	0x3d3e3c20	0.04644406
183	0x3e6f4c2d	0.23368903
184	0x3e572e98	0.21013868
185	0xbe44bd1f	-0.19212769
186	0xbd238276	-0.03991934
187	0x3e071cae	0.13194534
188	0x3d3dc573	0.04633088
189	0x3e5ba448	0.21449387
190	0x3e302feb	0.17205779
191	0x3db42952	0.08796944
192	0xbe085a8c	-0.13315791
193	0xbd6867c7	-0.056739595
194	0xbd3d22d7	-0.046175804
195	0xbd63e2e4	-0.0556363
196	0xbe562ccd	-0.20915528
197	0x3e15a69f	0.14614342
198	0x3d6a70d6	0.057236515
199	0xbd09d251	-0.03364784
200	0x3d6a0d73	0.057141732
201	0xbd06f285	-0.03294613
202	0x3e151324	0.14558083
203	0x3dfa2586	0.12214188
204	0x3e14f3c7	0.14546119
205	0xbe2037d5	-0.15646298
206	0x3da093f9	0.078407235
207	0xbc95027f	-0.018189667
208	0x3e16ef84	0.14739805
209	0xbe1d645b	-0.15370314
210	0x3e04c814	0.12966949
211	0x3df27c1c	0.11840078
212	0xbe552f77	-0.20818888
213	0xbe022c23	-0.1271215
214	0x3dd20ea9	0.102567025
215	0x3e3cda79	0.18442716
216	0xbe2057ac	-0.15658444
217	0xbe24783b	-0.1606149
218	0xbdf9614b	-0.1217676
219	0xbe0b1d04	-0.13585287
220	0x3e4e2d87	0.20134555
221	0x3d38be69	0.045103464
222	0xbe3917d7	-0.180755
223	0xbda52681	-0.08063985
224	0xbe1dd82c	-0.15414494
225	0xbdf19a5c	-0.1179702
226	0x3e2d944a	0.16951099
227	0xbd1766ad	-0.036963154
228	0x3dcb6694	0.099316746
229	0x3dcbe2cb	0.09955367
230	0x3e3842ab	0.17994182
231	0x3e0641a6	0.1311098
232	0x3d956160	0.072939634
233	0xbc96f4da	-0.018427301
234	0xbc7fe3fd	-0.0156183215
235	0xbd69e318	-0.05710134
236	0x3dea1f37	0.11431735
237	0xbda7f1a0	-0.08200383
238	0xbdb7d5dd	-0.08976338
239	0x3d2e6bfd	0.042583454
240	0x3ca9d6cd	0.020732308
241	0xbdd11f4b	-0.10211047
242	0x3e6f0763	0.23342662
243	0xbdc9ceef	-0.098539226
244	0xbdc39c3c	-0.09551284
245	0xbe189992	-0.14902332
246	0x3de965a9	0.11396343
247	0x3e2c3394	0.1681655
248	0x3e1b4307	0.15162288
249	0x3e0ffbe8	0.14060938
250	0xbe104ce9	-0.14091839
251	0x3e09b730	0.13448787
252	0xbd7a7792	-0.061149187
253	0x3e946eae	0.28990692
254	0xbd4475d3	-0.04796393
255	0x3bc8833f	0.0061191614

encoder.0.bias f4 [128]
0	0x3e4eccd6	0.20195326
1	0x3dde930d	0.108678915
2	0xbd363b46	-0.04449012
3	0xbe3953fa	-0.18098441
4	0x3e496c84	0.19670302
5	0xbcc8e3e1	-0.024522724
6	0xbe3c1c31	-0.18370129
7	0xbe04f05a	-0.12982312
8	0x3e29f486	0.16597185
9	0xbe43435a	-0.19068661
10	0x3dbe44fb	0.09290501
11	0x3e28713a	0.16449443
12	0xbe4c437b	-0.19947617
13	0xbd95cb4f	-0.07314169
14	0x3da4a1cf	0.08038675
15	0xbdc2e666	-0.09516601
16	0xbb993583	-0.0046755685
17	0x3e1b7465	0.1518112
18	0x3b324322	0.0027200659
19	0xbe527cb3	-0.20555381
20	0x3d5dcf87	0.05415299
21	0xbd4804df	-0.04883277
22	0x3e374116	0.17895922
23	0x3e33f5cf	0.17574237
24	0x3d92f1d5	0.07175032
25	0xbe35142e	-0.17683479
26	0x3de149af	0.11000382
27	0xbd9cfe6a	-0.07665713
28	0x3dcf4ab6	0.10121672
29	0x3e428015	0.18994172
30	0xbd9328e1	-0.071855314
31	0x3c746984	0.014917735
32	0x3da3f1ab	0.08005079
33	0x3e499af0	0.1968801
34	0xbde6ea5b	-0.112751685
35	0xbd0720b2	-0.032990165
36	0x3d9227ce	0.071364984
37	0x3e30c71b	0.17263453
38	0xbda9f66f	-0.082989566
39	0xbe034c13	-0.12821989
40	0x3d94e248	0.07269722
41	0xbe1b9c52	-0.1519635
42	0x3e4b85ae	0.19875214
43	0xbe33fd8f	-0.17577194
44	0x3d44984a	0.047996797
45	0x3da112c4	0.078649074
46	0xbe3c8c4d	-0.18412896
47	0x3cb8a4b0	0.022539467
48	0x3e04e227	0.12976895
49	0xbe072662	-0.13198236
50	0xbe48bd2a	-0.1960341
51	0xbde15fa3	-0.110045694
52	0xbe1a3ef2	-0.15063074
53	0xbd70fe3e	-0.058836214
54	0xbe467370	-0.19379973
55	0xbc88c13f	-0.01669371
56	0xbdb4e830	-0.08833349
57	0x3e23df87	0.16003238
58	0xbe08c1f3	-0.13355236
59	0x3e417c1f	0.18895005
60	0x3e0bf2f7	0.13666902
61	0x3d41d4dd	0.047322143
62	0xbde5d732	-0.11222686
63	0x3d06b38d	0.032886077
64	0xbc928380	-0.01788497
65	0x3e1f6f5e	0.15569827
66	0x3e0820ab	0.13293712
67	0xbdcf98c6	-0.10136561
68	0x3dc4ebc3	0.096152805
69	0xbd47a01c	-0.048736677
70	0xbe202988	-0.15640843
71	0x3e3e9170	0.18610168
72	0x3aa0e0a9	0.0012273985
73	0x3e510d05	0.20415123
74	0x3dae9a3a	0.0852551
75	0x3d63bd00	0.055600166
76	0xbd220ef1	-0.03956503
77	0xbd00e592	-0.031468935
78	0xbe0877c8	-0.13326943
79	0x3e07e9fe	0.13272855
80	0x3d7d2b99	0.061809156
81	0x3c5502e5	0.013001178
82	0xbe270818	-0.16311681
83	0x3badd25a	0.005304617
84	0xbc9a2be5	-0.018819759
85	0x3e04a154	0.12952167
86	0x3e095f9f	0.13415383
87	0x3dbc1745	0.09184126
88	0xbdfd524a	-0.12369211
89	0xbc93d908	-0.018047825
90	0xbbaf4294	-0.005348513
91	0x3e492374	0.1964243
92	0xbe0a081e	-0.13479659
93	0xbe41eee0	-0.1893878
94	0xbd63344f	-0.055469807
95	0xbddafb2f	-0.10692441
96	0x3e047647	0.12935744
97	0xbdd90014	-0.10595718
98	0x3c222037	0.009895376
99	0xbe22e8fb	-0.15909187
100	0x3d26a51c	0.040684804
101	0x3d3949bc	0.045236334
102	0x3e37c2ee	0.17945454
103	0xbde4c0e0	-0.111696005
104	0x3cb84515	0.022493878
105	0xbdcf0f28	-0.10110313
106	0xbdb07dca	-0.08617742
107	0xbddb5645	-0.10709814
108	0xbd0bdfd1	-0.034148995
109	0x3e061489	0.13093771
110	0x3e4f8e71	0.20269181
111	0x3da4d8dc	0.08049175
112	0x3e3bc8a3	0.18338256
113	0x3e39e7f0	0.18154883
114	0x3dacf3aa	0.08444913
115	0x3dd7599e	0.1051514
116	0x3e28c2a5	0.16480501
117	0xbdac9ad7	-0.08427971
118	0x3c94853a	0.018129934
119	0x3db98ee4	0.09060457
120	0x3bd73c5a	0.0065684738
121	0xbe135d27	-0.14391004
122	0x3df61be9	0.12017042
123	0x3de85e27	0.11346083
124	0x3dfd22c9	0.1236015
125	0xbdc6cbe4	-0.09706858
126	0x3de0f345	0.109839
127	0x3e44a4ed	0.19203539

encoder.1.weight f4 [128]
0	0x3f7e0848	0.99231386
1	0x3f83f09f	1.0307807
2	0x3f8336b9	1.0251075
3	0x3f7f4e4e	0.9972886
4	0x3f79890d	0.9747475
5	0x3f7dd9b5	0.9916032
6	0x3f7a979b	0.9788758
7	0x3f78ec70	0.97235775
8	0x3f838573	1.02751
9	0x3f7eead0	0.99577045
10	0x3f804998	1.0022459
11	0x3f79901e	0.9748553
12	0x3f7ed078	0.9953685
13	0x3f85f395	1.046496
14	0x3f7df7b1	0.9920607
15	0x3f6bc5ef	0.920989
16	0x3f7fb7b7	0.998897
17	0x3f80b55e	1.0055349
18	0x3f82c350	1.0215855
19	0x3f835bf2	1.0262434
20	0x3f7cac3f	0.98700327
21	0x3f76a437	0.9634432
22	0x3f7d431f	0.98930544
23	0x3f80fa80	1.0076447
24	0x3f75c19f	0.9599857
25	0x3f852dbd	1.0404583
26	0x3f7a3921	0.9774342
27	0x3f85e356	1.0460002
28	0x3f7478cd	0.9549683
29	0x3f87c6f6	1.0607593
30	0x3f800bce	1.0003603
31	0x3f80a2a5	1.0049635
32	0x3f83b44d	1.0289398
33	0x3f7d424a	0.98929274
34	0x3f79c867	0.97571415
35	0x3f781046	0.9689983
36	0x3f78bdf1	0.9716483
37	0x3f78b33d	0.97148496
38	0x3f82d552	1.022135
39	0x3f828498	1.0196714
40	0x3f82b9ce	1.0212953
41	0x3f8080d9	1.0039321
42	0x3f7f486a	0.9971987
43	0x3f8741d1	1.056696
44	0x3f83722a	1.0269215
45	0x3f83bacd	1.0291382
46	0x3f7eeba5	0.99578315
47	0x3f69bc12	0.913026
48	0x3f807e3b	1.0038522
49	0x3f821732	1.0163329
50	0x3f829af0	1.0203533
51	0x3f80382c	1.0017142
52	0x3f753890	0.9578943
53	0x3f7ca0fd	0.9868315
54	0x3f80dce5	1.0067412
55	0x3f7a7848	0.97839785
56	0x3f7b212c	0.9809749
57	0x3f8124d3	1.0089363
58	0x3f80a711	1.0050985
59	0x3f7fbf20	0.9990101
60	0x3f80072f	1.0002192
61	0x3f756d9f	0.95870394
62	0x3f76488c	0.9620445
63	0x3f795050	0.9738817
64	0x3f7def81	0.9919358
65	0x3f7f7323	0.9978506
66	0x3f85e2c4	1.0459828
67	0x3f78bede	0.9716624
68	0x3f77127d	0.96512586
69	0x3f81063f	1.0080031
70	0x3f794daf	0.9738416
71	0x3f74c45b	0.95612115
72	0x3f84527b	1.0337671
73	0x3f7a62d3	0.97807044
74	0x3f834839	1.0256416
75	0x3f7acfed	0.9797352
76	0x3f826ce9	1.0189487
77	0x3f7ca127	0.986834
78	0x3f7fd967	0.99941105
79	0x3f7e7a18	0.9940505
80	0x3f78b6ce	0.9715394
81	0x3f8027eb	1.0012182
82	0x3f798e4e	0.97482765
83	0x3f7d740e	0.9900521
84	0x3f88d19a	1.0688965
85	0x3f804b77	1.002303
86	0x3f8096eb	1.0046057
87	0x3f8541aa	1.0410664
88	0x3f7b2c5d	0.9811457
89	0x3f7f78d6	0.99793756
90	0x3f8367dd	1.0266072
91	0x3f73f95d	0.95302373
92	0x3f832edb	1.0248674
93	0x3f80dd43	1.0067524
94	0x3f847807	1.034913
95	0x3f7fdcd2	0.9994632
96	0x3f7d07e1	0.9884015
97	0x3f7838c3	0.9696161
98	0x3f7cb6d3	0.9871647
99	0x3f80cc80	1.0062408
100	0x3f7e9622	0.99447834
101	0x3f846490	1.0343189
102	0x3f7e7a19	0.99405056
103	0x3f7b5b11	0.9818583
104	0x3f7e96cc	0.9944885
105	0x3f81ea5f	1.0149649
106	0x3f79e4e7	0.976149
107	0x3f779549	0.96712166
108	0x3f79ff8b	0.9765555
109	0x3f80f999	1.0076171
110	0x3f6e3a26	0.9305748
111	0x3f831874	1.0241838
112	0x3f7af61a	0.9803177
113	0x3f80b60e	1.0055559
114	0x3f83625a	1.026439
115	0x3f7e68a7	0.99378437
116	0x3f829810	1.0202656
117	0x3f825877	1.0183247
118	0x3f841a0d	1.032045
119	0x3f7bfce3	0.9843275
120	0x3f7ba657	0.9830069
121	0x3f83b819	1.0290557
122	0x3f85bcb9	1.0448219
123	0x3f82cbc8	1.0218439
124	0x3f7bdd49	0.9838453
125	0x3f831133	1.0239624
126	0x3f81892a	1.0119984
127	0x3f80ed0f	1.0072345

encoder.1.bias f4 [128]
0	0xbd87bd46	-0.06627898
1	0xbcce6869	-0.025196271
2	0xbb9e477d	-0.0048302994
3	0xbdd7973d	-0.10526893
4	0xbd935eb6	-0.07195799
5	0x3d01d194	0.03169401
6	0xbd7c745d	-0.06163441
7	0xbcd47cdd	-0.025938446
8	0x3b864e5d	0.004098697
9	0x3d10eac4	0.03538014
10	0x3d26a5f3	0.040685605
11	0xbd11d222	-0.03560079
12	0xbddb1c1c	-0.10698721
13	0x3d180d5f	0.037122127
14	0x3cc71a9a	0.024304677
15	0xbd4b059d	-0.0495659
16	0x3caad3f5	0.020853022
17	0xbbc8e612	-0.006130942
18	0x3d86e9af	0.0658754
19	0xbcacf4a5	-0.02111275
20	0xbd42616b	-0.047456186
21	0xbbb4fa67	-0.0055230143
22	0xbd0bbcbe	-0.034115545
23	0x3b9307fa	0.004487035
24	0x3d1e0ca1	0.038586263
25	0xbcf6fc57	-0.030149622
26	0xbda3bb24	-0.079946786
27	0xbd924651	-0.07142318
28	0xbd671999	-0.056420896
29	0xbb8f6c57	-0.004376929
30	0x3d390554	0.045171097
31	0xbcd036d4	-0.02541677
32	0x3d83a21a	0.06427403
33	0x3d8e556d	0.069498874
34	0xbc976b73	-0.018483853
35	0xbd98db1c	-0.07463667
36	0xbd4532bb	-0.048144083
37	0x3d11e8b5	0.035622317
38	0x3dd66e5c	0.10470268
39	0x3c201595	0.009770771
40	0x3d10d385	0.03535797
41	0xbd1e7c65	-0.03869285
42	0xbdb63efa	-0.088987306
43	0xbde8a2b3	-0.113591574
44	0x3a537c33	0.00080675184
45	0xbd0016bc	-0.03127168
46	0x3bdfdc3d	0.0068316744
47	0xbd48bf2d	-0.049010444
48	0xbd44eba4	-0.048076287
49	0x3dc1dcb2	0.094659224
50	0xbcf1c23d	-0.029511565
51	0xbd2e4d99	-0.04255447
52	0xbd319ef3	-0.043364476
53	0xbd436e27	-0.04771247
54	0x3d304d85	0.04304268
55	0x3b3b5edc	0.0028590476
56	0xbdb19e7d	-0.08672807
57	0x3bbe8670	0.005814366
58	0x3ca33d53	0.019926703
59	0xbd18413f	-0.0371716
60	0x3d4ff0a4	0.050766602
61	0xbd5ed869	-0.054405604
62	0xbbc33fa7	-0.0059585157
63	0x3d711ef7	0.05886742
64	0xbdd4500a	-0.10366829
65	0x3cef5c95	0.029218951
66	0x3d104887	0.035225417
67	0xbbe392e6	-0.006945002
68	0xbd93dce4	-0.07219866
69	0xbd106e9f	-0.035261746
70	0xbdae1aff	-0.08501243
71	0xbd2ab5ee	-0.041677408
72	0xbcc790d6	-0.024361055
73	0xbd46dd56	-0.048550926
74	0x3cd1b83d	0.025600547
75	0x3cce22a3	0.025163
76	0xbdf26bbd	-0.11836956
77	0xbdd4f9c2	-0.103992
78	0xbdafdc40	-0.08586931
79	0x3d0d60ca	0.034516133
80	0xbde30a1f	-0.11085915
81	0x3d09ae80	0.03361368
82	0xbe091969	-0.133886
83	0x3d8f2838	0.06990093
84	0xbd34b5d0	-0.044118702
85	0x3b974f74	0.004617626
86	0xbd330db7	-0.04371425
87	0xbd4e987f	-0.0504384
88	0x3ced092c	0.028935038
89	0xbcacad24	-0.021078654
90	0xbbddacaf	-0.0067649703
91	0x3cafaed7	0.021445675
92	0x3d39799b	0.045281988
93	0x3c70cbb2	0.014697002
94	0xbd2031bd	-0.039109934
95	0x3d20d77d	0.039268006
96	0x3da792b0	0.08182275
97	0xbda05c9f	-0.07830166
98	0x3d181a07	0.037134197
99	0xbb2f1d2b	-0.0026720266
100	0xbc9d75b6	-0.019221168
101	0xbc285586	-0.010274297
102	0xbbd9010c	-0.0066224393
103	0xbde37b7d	-0.11107538
104	0x3d2d8f3c	0.042372927
105	0xbdc1cd24	-0.094629556
106	0xbc1663d2	-0.009179072
107	0xbc659c11	-0.01401426
108	0xbd104bc0	-0.03522849
109	0xbdca01da	-0.098636344
110	0xbd824224	-0.063602716
111	0x3d55e196	0.05221709
112	0x3d35f0cd	0.0444191
113	0xbccb014b	-0.02478089
114	0x3c9e7dc1	0.019347074
115	0xbd826627	-0.0636714
116	0xbce21a58	-0.027600452
117	0xbc1b69fa	-0.009485716
118	0x3d896209	0.06708152
119	0xbcaf58e9	-0.0214047
120	0xbb45f5ef	-0.0030206402
121	0xbd93d913	-0.07219138
122	0xbcc0f72b	-0.023555359
123	0xbcc534f0	-0.024073094
124	0x3b11778e	0.0022196504
125	0x3cd9829d	0.02655154
126	0x3bee056e	0.007263831
127	0xbd11c4f3	-0.035588216

encoder.1.running_mean f4 [128]
0	0x3e4c03ca	0.1992332
1	0x3daf30ad	0.08554206
2	0xbd9147f2	-0.070938006
3	0xbe507a03	-0.20359044
4	0x3e599d91	0.21251513
5	0xbc3fdecf	-0.011710837
6	0xbe4c1c4b	-0.19932668
7	0xbdf68513	-0.12037101
8	0x3e284f81	0.16436578
9	0xbe447115	-0.19183762
10	0x3dd8099b	0.10548707
11	0x3e0356d9	0.12826099
12	0xbe62b9b1	-0.22141148
13	0xbd9f248a	-0.07770641
14	0x3dbbf37b	0.091772996
15	0xbdb8a9c4	-0.09016755
16	0x3b446ffc	0.0029973974
17	0x3e23fc4a	0.1601421
18	0x3c008154	0.007843334
19	0xbe47f66c	-0.19527596
20	0x3d28529b	0.041094404
21	0xbd0200e7	-0.03173914
22	0x3e44d786	0.1922284
23	0x3e473a53	0.19455843
24	0x3d812c56	0.063072845
25	0xbe265584	-0.16243559
26	0x3dd6986f	0.10478293
27	0xbdf7bef9	-0.12096972
28	0x3d6b8423	0.057499062
29	0x3e4ef18d	0.20209332
30	0xbd5058de	-0.050866
31	0xbc2e11c4	-0.010624353
32	0x3dc23d26	0.094843194
33	0x3e6cbec8	0.23119652
34	0xbdfaedf1	-0.12252415
35	0xbd29d13e	-0.041459315
36	0x3daf3ffb	0.08557125
37	0x3e388388	0.18018925
38	0xbdb34095	-0.087525524
39	0xbdf35b2d	-0.11882625
40	0x3da19a97	0.07890814
41	0xbe08a918	-0.13345754
42	0x3e39ebb6	0.18156323
43	0xbe4f014a	-0.20215335
44	0x3d60e2a7	0.054903653
45	0x3d486408	0.048923522
46	0xbe3a95b7	-0.18221174
47	0x3d5b5c91	0.053555075
48	0x3dd42d38	0.10360187
49	0xbdd8aa4a	-0.10579355
50	0xbe3b44ef	-0.18288015
51	0xbe0e6d9b	-0.13908999
52	0xbe0627dc	-0.13101143
53	0xbd958907	-0.073015265
54	0xbe2b0353	-0.16700487
55	0xbcb7e058	-0.022445843
56	0xbdade876	-0.08491604
57	0x3e263aa4	0.16233307
58	0xbe09080e	-0.13381979
59	0x3e49cba5	0.1970659
60	0x3e261aa6	0.16221103
61	0x3c85a152	0.016312275
62	0xbe044f2a	-0.12920824
63	0x3ccc8dfa	0.024970043
64	0xbd907a82	-0.070546165
65	0x3e1163d0	0.14198232
66	0x3dd4e16a	0.10394557
67	0xbd9e9b20	-0.077444315
68	0x3da9c2f5	0.08289138
69	0xbd5f98e0	-0.054589152
70	0xbe09aa6c	-0.13443917
71	0x3e4dea73	0.20108967
72	0xbd391ed2	-0.04519541
73	0x3e5220d4	0.20520335
74	0x3dd9c971	0.10634125
75	0x3d5d88f0	0.054085672
76	0xbdab8793	-0.08375468
77	0xbc8f5540	-0.017496705
78	0xbe03798d	-0.12839337
79	0x3df983a4	0.121833116
80	0x39f28cbc	0.00046262692
81	0x3c8a1fcb	0.016860863
82	0xbe1da297	-0.15394054
83	0x3ce0db09	0.027448194
84	0xbd4e6b4d	-0.0503953
85	0x3e1aeaa6	0.15128574
86	0x3e030cb7	0.12797819
87	0x3dcf25a5	0.10114602
88	0xbdfccb74	-0.12343493
89	0xbd0a00c1	-0.033692125
90	0xbcfc6d1b	-0.030813744
91	0x3e3b6b69	0.18302692
92	0xbde1b416	-0.11020677
93	0xbe3348e9	-0.17508282
94	0xbd77917c	-0.06044148
95	0xbda53efb	-0.08068653
96	0x3df6d865	0.12052993
97	0xbdb1a6f7	-0.08674424
98	0x3c374907	0.011186845
99	0xbe225527	-0.15852796
100	0x3d08d793	0.033408713
101	0x3d5ca370	0.053866804
102	0x3e451cd0	0.19249272
103	0xbe254f1b	-0.16143458
104	0x3cfb7a9e	0.030698117
105	0xbdfd3187	-0.12362962
106	0xbda0ce61	-0.07851864
107	0xbdb9ca97	-0.09071844
108	0xbca7d4b7	-0.020487173
109	0x3ddef3bc	0.108863324
110	0x3e2e85c4	0.17043215
111	0x3da980e9	0.08276541
112	0x3e3b7e0a	0.18309799
113	0x3e315977	0.17319284
114	0x3dc7287f	0.09724521
115	0x3e022b80	0.12711906
116	0x3e16dbde	0.1473231
117	0xbdac56a1	-0.08414961
118	0x3d2b4f55	0.041823704
119	0x3de376b7	0.111066274
120	0x3c3368a2	0.010950239
121	0xbe004919	-0.12527885
122	0x3db44a53	0.08803239
123	0x3dc61e15	0.096737064
124	0x3df67e8e	0.12035857
125	0xbdac9b12	-0.08428015
126	0x3d97bde7	0.07409268
127	0x3e1be1fb	0.15222923

encoder.1.running_var f4 [128]
0	0x3ebaa3a1	0.36452964
1	0x3e84af98	0.25915217
2	0x3ebeb6f4	0.37248957
3	0x3f067341	0.52519614
4	0x3f122397	0.57085556
5	0x3e38225d	0.17981859
6	0x3e759929	0.23984207
7	0x3ea03918	0.3129356
8	0x3ecc5050	0.39905024
9	0x3e58cb44	0.2117129
10	0x3ee8ea16	0.45491093
11	0x3ecfc64a	0.4058097
12	0x3ec0237c	0.37527072
13	0x3e62aa95	0.22135384
14	0x3e6dfc06	0.2324067
15	0x3f3a2854	0.72717786
16	0x3e727101	0.2367592
17	0x3ec0dfdc	0.3767079
18	0x3e518ada	0.20463124
19	0x3e9f2e26	0.31089896
20	0x3ed5ba5b	0.4174374
21	0x3ea585f7	0.3232877
22	0x3eae91c7	0.34095594
23	0x3ea95126	0.33069724
24	0x3dd72eef	0.10506999
25	0x3eab063b	0.3340319
26	0x3eadceec	0.3394693
27	0x3f3fbed0	0.7490053
28	0x3fdf07a9	1.7424213
29	0x3eac4fff	0.33654782
30	0x3f05760e	0.5213326
31	0x3f1b10f8	0.6057277
32	0x3e2f32a5	0.17109163
33	0x3eb2f5e4	0.34953225
34	0x3ec86658	0.39140582
35	0x3eb12995	0.34602037
36	0x3ecb52d7	0.3971164
37	0x3e9e40a9	0.30908707
38	0x3eb2e767	0.3494217
39	0x3ea7f751	0.32805875
40	0x3e8b473a	0.2720278
41	0x3ea13304	0.31484234
42	0x3e89f9bc	0.26948345
43	0x3ed04e88	0.40684915
44	0x3e0f533d	0.13996597
45	0x3ea63e2f	0.32469317
46	0x3e7ed40f	0.24885581
47	0x3f190939	0.597797
48	0x3eb0cdcb	0.34532008
49	0x3eb17a57	0.3466365
50	0x3e985c48	0.29757905
51	0x3f70e493	0.94098777
52	0x3eca945c	0.39566314
53	0x3e5f032e	0.21778557
54	0x3e9b3930	0.30317068
55	0x3e8b0296	0.2715041
56	0x3e713fbe	0.23559472
57	0x3eadd5c8	0.33952165
58	0x3eb1b3ad	0.34707394
59	0x3e93213d	0.28736296
60	0x3ecbc55d	0.39799014
61	0x3f2007cb	0.6251189
62	0x3e874939	0.26423052
63	0x3e9267ed	0.28594914
64	0x3f753012	0.95776474
65	0x3e8f0b2a	0.27938205
66	0x3eeb0daa	0.45908862
67	0x3eb38939	0.3506563
68	0x3e973bbe	0.29537767
69	0x3e6c203d	0.23059173
70	0x3f32f3fc	0.6990354
71	0x3e9eef1e	0.31041807
72	0x3f2d1dad	0.67623407
73	0x3e87f5f8	0.26554847
74	0x3ed51b22	0.41622263
75	0x3e9f9379	0.311672
76	0x3f88681a	1.0656769
77	0x3f0feb66	0.56218565
78	0x3efba004	0.4914552
79	0x3ec45120	0.38343143
80	0x3f859fa8	1.0439348
81	0x3ea4b568	0.32169652
82	0x3e32dbcb	0.17466657
83	0x3ec97261	0.39345077
84	0x3ebd981f	0.37030122
85	0x3e70f8ea	0.23532453
86	0x3eb98743	0.3623601
87	0x3e8979cd	0.2685074
88	0x3e0f949c	0.14021534
89	0x3e5b7740	0.21432209
90	0x3e32ae13	0.17449217
91	0x3e792931	0.2433212
92	0x3eb3223a	0.3498705
93	0x3e6e2259	0.2325529
94	0x3e0eb3c3	0.13935761
95	0x3e835edf	0.25658318
96	0x3eaea062	0.34106737
97	0x3e992390	0.29909945
98	0x3eb2e024	0.3493663
99	0x3e3bd5fe	0.1834335
100	0x3e6cae4d	0.23113365
101	0x3ebbbd38	0.366678
102	0x3ea9c1c9	0.3315566
103	0x3fa9341f	1.3219031
104	0x3ea1a3c2	0.3157025
105	0x3f161d31	0.5863829
106	0x3e3aa228	0.1822592
107	0x3e68b5f8	0.22725666
108	0x3e39ed24	0.18156868
109	0x3f17e8ad	0.5933941
110	0x3f209664	0.6272948
111	0x3e3c5981	0.18393518
112	0x3eccd593	0.40006694
113	0x3eb8eab3	0.3611656
114	0x3eaab01b	0.33337483
115	0x3eb16278	0.34645438
116	0x3ea3e907	0.32013723
117	0x3e86faaf	0.2636313
118	0x3e462cab	0.19352977
119	0x3ebaf30f	0.36513564
120	0x3e932349	0.28737858
121	0x3e5881cc	0.21143264
122	0x3ed81409	0.42202786
123	0x3ed6451e	0.41849607
124	0x3eb05110	0.34436846
125	0x3e77aaa2	0.24186185
126	0x3f94bb0a	1.161958
127	0x3f41b475	0.7566598

encoder.4.weight f4 [64, 128]
0	0x3d934b85	0.071921386
1	0x3cd5b46e	0.026087012
2	0x3ccf3b76	0.025296908
3	0x3ca0cebd	0.01962983
4	0x3c72d9b7	0.014822415
5	0x3dca84c6	0.09888606
6	0x3d50ee08	0.051008254
7	0x3c6aaa23	0.01432279
8	0xbdcb1bd9	-0.09917421
9	0x3df19abe	0.11797093
10	0x3d889c9f	0.06670498
11	0xbdac19cb	-0.08403357
12	0xbd9b99a9	-0.07597668
13	0x3c98b227	0.018639637
14	0x3be6b2bd	0.00704035
15	0xbd9b3747	-0.07578903
16	0xbbc5b29c	-0.006033255
17	0x3d321d22	0.043484814
18	0xbdc4b457	-0.096047096
19	0x3d1a3ac6	0.037653707
20	0xbcd2c0f7	-0.025726778
21	0x3d27a1e0	0.04092586
22	0x3ba9d9fb	0.005183456
23	0x3decee15	0.11568848
24	0xbd6d7672	-0.057974286
25	0xbc4fce81	-0.012683512
26	0x3c166475	0.009179224
27	0xbd06d594	-0.032918528
28	0x3d1ed059	0.038772915
29	0x3d0937ff	0.033500668
30	0x3ce1430c	0.02749779
31	0xbbc844f8	-0.0061117373
32	0x3d5b7723	0.053580415
33	0x3cf63b66	0.03005762
34	0xbd1afb20	-0.037837148
35	0xbbce26ac	-0.006291231
36	0x3d2fd69a	0.04292927
37	0xbba5a4c9	-0.0050550443
38	0xbd2f0934	-0.042733386
39	0x3ddacf8f	0.1068412
40	0x3cfd5b46	0.030927312
41	0x3cdb23ad	0.02675041
42	0xbbe12dba	-0.006871906
43	0x3d88fe7b	0.06689163
44	0x3d40c55e	0.047063224
45	0xbd0952fc	-0.033526406
46	0x3b9b7671	0.004744344
47	0xbccc4a3e	-0.024937745
48	0xbbb89d1c	-0.0056339633
49	0xbce0ca3e	-0.027440187
50	0xbdba7a07	-0.09105306
51	0x3d3b2531	0.045689765
52	0x3d3ad1ee	0.04561036
53	0x3bb2d6aa	0.005457719
54	0x3d3e48d5	0.046456177
55	0x3d22fef4	0.039793923
56	0x3cabbcbb	0.020964017
57	0x3d9c467a	0.0763063
58	0xbd2af366	-0.04173603
59	0xbd5bbc15	-0.053646166
60	0xbc430a4d	-0.011904311
61	0x3d508a20	0.050912976
62	0x3bf66d2e	0.0075203395
63	0xbd82e26a	-0.06390841
64	0xbcf1c272	-0.029511664
65	0x3a811569	0.00098483
66	0x3dd0d2c3	0.101964496
67	0x3da61af3	0.08110609
68	0x3c9353d5	0.01798431
69	0xbbc91caf	-0.0061374526
70	0x3b0a8079	0.0021133705
71	0x3d902a5f	0.07039332
72	0x3dcb90cf	0.099397294
73	0x3d3163bb	0.043308
74	0xbcddf4d8	-0.02709429
75	0x3dfce5c0	0.12348509
76	0xba685e29	-0.00088641286
77	0xbd8a3b9e	-0.06749652
78	0x3d9035f3	0.0704154
79	0xbe01531b	-0.12629358
80	0xbe0ee3f6	-0.13954148
81	0x3c424939	0.011858278
82	0x3d933a06	0.071888015
83	0xbd0bc364	-0.034121886
84	0x3d83e723	0.0644057
85	0xbdbf9422	-0.09354426
86	0xba075eb2	-0.0005163952
87	0x3dc3cccd	0.09560547
88	0xbb3a84a4	-0.0028460408
89	0xbdc3dab4	-0.09563199
90	0x3d7a267e	0.061071865
91	0x3d2835ff	0.04106712
92	0x3ce05afa	0.027387131
93	0x3ddf58f4	0.10905638
94	0x3d14af87	0.03630021
95	0x3ddf6190	0.109072804
96	0xbc98c129	-0.018646793
97	0x3d86d216	0.065830395
98	0x3d5199da	0.051172115
99	0xbd40ff13	-0.047118258
100	0xbdb74a9f	-0.0894978
101	0xbb926faf	-0.00446888
102	0x3be2048a	0.0068975138
103	0x3d51f35f	0.051257487
104	0xbd5f6c4f	-0.05454665
105	0x3dc50d21	0.09621645
106	0x3d596a89	0.053080115
107	0xbd8bba46	-0.06822638
108	0xbdbefab9	-0.09325165
109	0xbd3ac717	-0.045600023
110	0xbdc71e2b	-0.09722551
111	0x3c281636	0.010259202
112	0xbdbaaa01	-0.09114457
113	0x3ab1ad88	0.0013555745
114	0x3c02ec99	0.00799098
115	0x3d472a62	0.048624404
116	0x3d27d40c	0.040973708
117	0xbd6becd1	-0.057598893
118	0x3cb47cfe	0.022032257
119	0x3da0d26f	0.07852637
120	0xbd70af3c	-0.058760867
121	0x3d815767	0.06315499
122	0xbd4c048c	-0.049809024
123	0xbdf22e7e	-0.11825274
124	0x3d8e61d8	0.06952256
125	0xbd89ed7d	-0.067347504
126	0xbd394dfa	-0.04524038
127	0xbd60bacf	-0.054865655
128	0xbd2564b6	-0.04037925
129	0x3d98cbbb	0.074607335
130	0xbdc4079a	-0.095717624
131	0x3d8e77b0	0.06956422
132	0x3d1c2b84	0.038127437
133	0x3d95546b	0.07291492
134	0x3c1d79ec	0.009611588
135	0xbc4649b3	-0.012102532
136	0x3d8d2931	0.06892622
137	0xbcbef712	-0.023311172
138	0x3d81406f	0.06311118
139	0xbd67386a	-0.056450285
140	0x3d360555	0.04443868
141	0xbd6be65e	-0.057592742
142	0xbce31b8b	-0.027723094
143	0x3d575015	0.052566607
144	0xbc92c46c	-0.017915927
145	0x3b31f7e3	0.0027155809
146	0x3c8f6db1	0.01750836
147	0xbd359f5b	-0.044341426
148	0x3d14d74b	0.036338132
149	0x3dd28cc3	0.102807544
150	0x3d10c38a	0.03534273
151	0xbdbe608b	-0.09295758
152	0x3ce1c511	0.027559789
153	0x3a811351	0.0009847676
154	0x3db60932	0.088884726
155	0xbc6b34ba	-0.014355833
156	0xbcb317a3	-0.021861857
157	0xbdd6aa28	-0.104816735
158	0x3cced8a4	0.025249787
159	0x3d840f1c	0.064481944
160	0xbc3edd5e	-0.011649458
161	0xbd112102	-0.03543187
162	0xbd4e2c6c	-0.050335333
163	0xbdc3b918	-0.09556788
164	0x3dc3bb23	0.09557178
165	0x3b039370	0.0020076893
166	0x3baa7d08	0.005202893
167	0xbd7a997f	-0.06118154
168	0xbd96383e	-0.07334946
169	0x3cc99c0b	0.02461054
170	0xbe676671	-0.22597672
171	0xbca55466	-0.020181846
172	0xbd53f400	-0.05174637
173	0x3dac0182	0.08398725
174	0xbe0e84fe	-0.1391792
175	0x3d07b5cd	0.033132363
176	0xbdafaa31	-0.08577383
177	0xbde67358	-0.11252469
178	0xbd12b51e	-0.035817258
179	0xbdaf7acd	-0.08568344
180	0x3d31fb5c	0.043452606
181	0xbd1a4152	-0.03765995
182	0xbcf7d83a	-0.030254472
183	0x3d784fa4	0.060622826
184	0x3d357a31	0.044305984
185	0xbd93b561	-0.0721233
186	0x3db056e8	0.08610326
187	0x3cf40bd8	0.029790804
188	0xbb7ffbb1	-0.0039059932
189	0xbe202aa7	-0.1564127
190	0xbc2ea10a	-0.010658512
191	0xbd4387ea	-0.04773704
192	0xbd89daef	-0.067312114
193	0x3df0498e	0.117327794
194	0xbba898a6	-0.0051451502
195	0x3d484c6f	0.048901018
196	0xbd9c41f2	-0.076297656
197	0xbd0d69c4	-0.034524694
198	0x3d0fd0e3	0.03511132
199	0xbd067de6	-0.03283491
200	0xbd69400d	-0.05694585
201	0xbd2c84ad	-0.042118717
202	0xbd030c31	-0.03199405
203	0x3bf5c254	0.0074999724
204	0xbc13b9ea	-0.009016493
205	0x3c2f24bc	0.0106899105
206	0x3dcc067b	0.099621736
207	0x3d8eb211	0.06967557
208	0x3db92087	0.09039407
209	0xbd494378	-0.04913661
210	0xb8514e51	-4.990242e-05
211	0x3d2691b0	0.040666282
212	0x3dac1bcf	0.084037416
213	0x3ce00045	0.027343879
214	0x3b66b505	0.003520311
215	0x3d67f184	0.05662681
216	0xbc6212d4	-0.013798434
217	0x3c65d92a	0.014028827
218	0xbd2ba5ea	-0.041906275
219	0x399ce61d	0.00029926086
220	0x3d3f98dc	0.046776637
221	0xbd51be21	-0.05120671
222	0x3d7b68cc	0.06137924
223	0x3d9954f6	0.07486908
224	0x3d97df4d	0.07415638
225	0x3de14a6b	0.11000522
226	0xbcdc0da7	-0.026861979
227	0xbccdfd62	-0.025145236
228	0x3d0fc13b	0.03509639
229	0x3c42b39b	0.011883642
230	0xbd60d249	-0.054888044
231	0x3d5bf972	0.053704686
232	0x3dcdf6a6	0.1005681
233	0xbde17e0d	-0.110103704
234	0xbd480a3e	-0.048837893
235	0x3d4b6a46	0.049661897
236	0xbdd69fc6	-0.10479693
237	0x3c8d4849	0.017246382
238	0xbc823894	-0.01589612
239	0x3d070b8b	0.032969993
240	0x3cdf3fa1	0.02725202
241	0xbdecf5b0	-0.11570299
242	0xbc81bb80	-0.015836477
243	0x3cc369b5	0.023854116
244	0xbd9be474	-0.07611933
245	0xbd4917fc	-0.04909514
246	0xbdd48aa5	-0.10378007
247	0x3e0cb677	0.1374148
248	0xbd18e2e4	-0.037325755
249	0x3d9ffbcd	0.07811699
250	0xbd57eb01	-0.05271435
251	0x3dbad5c2	0.09122802
252	0xbd963b1c	-0.07335493
253	0x3d55e439	0.052219603
254	0xbcb16b2b	-0.021657547
255	0xbda7695f	-0.08174395

encoder.4.bias f4 [64]
0	0xbc8986fa	-0.016787995
1	0x3d6c02ec	0.057619974
2	0x3d87fac2	0.06639625
3	0xbd27b767	-0.04094639
4	0xbd8bc456	-0.068245575
5	0x3d0e6fb7	0.03477451
6	0x3d3d8ab9	0.046274874
7	0xbcd77804	-0.026302345
8	0x3d71b3e0	0.059009433
9	0xbb747ef4	-0.0037307115
10	0x3d8a1aa0	0.067433596
11	0xbd089d1a	-0.03335295
12	0x3d82a8cc	0.06379852
13	0x3d00d4cc	0.03145294
14	0xbda6ec51	-0.081505425
15	0x3d2014a9	0.039082203
16	0x3d234813	0.039863657
17	0x3d3794a5	0.044819493
18	0x3d6b1e8a	0.05740217
19	0xbd23e10c	-0.040009543
20	0x3d8a3302	0.0674801
21	0xbcc0ad11	-0.023520024
22	0xbcdad8d9	-0.02671473
23	0x3d48e173	0.04904313
24	0x3b315efd	0.0027064674
25	0xbd509756	-0.050925575
26	0x3d833f1a	0.0640852
27	0xbd84a499	-0.06476707
28	0xbd8a4024	-0.06750515
29	0xba746cd8	-0.00093240803
30	0x3ce6f7a1	0.02819425
31	0xbc332a80	-0.010935426
32	0xbd345b1d	-0.044032205
33	0x3d6f36ca	0.05840186
34	0xbcbc5009	-0.022987382
35	0x3d91d24b	0.07120188
36	0x3ce08d8d	0.027411247
37	0xbd803bdb	-0.062614165
38	0xbc9e2b4e	-0.019307759
39	0x3d5fc80d	0.054634143
40	0xbd3882c0	-0.045046568
41	0x3d64559c	0.055745706
42	0xbd815bf8	-0.0631637
43	0x3bdc3158	0.0067197494
44	0x3c894e23	0.016760891
45	0xbd79dd79	-0.06100223
46	0xbd794ea9	-0.06086603
47	0xbd09c511	-0.033635203
48	0xbb0fc5e5	-0.0021938023
49	0x3ac45c6a	0.0014981155
50	0xbdacceba	-0.084378675
51	0xbd447d0f	-0.047970828
52	0x3d99a234	0.07501641
53	0xbc0a8e52	-0.008456783
54	0x3d0b51e0	0.03401363
55	0x3d12bb0c	0.035822913
56	0x3d27cba1	0.04096568
57	0xbd910445	-0.070808925
58	0x3cb76bfd	0.02239036
59	0xbb01da55	-0.0019813974
60	0x3d4bcfae	0.049758606
61	0xbcd68b58	-0.026189491
62	0x3da61d69	0.08111078
63	0x3d96fda4	0.07372597

encoder.5.weight f4 [64]
0	0x3f894ca4	1.0726514
1	0x3f89232e	1.0713861
2	0x3f8b6942	1.0891497
3	0x3f8c315f	1.0952567
4	0x3f8437c8	1.0329523
5	0x3f87cc99	1.0609313
6	0x3f87bcdd	1.0604511
7	0x3f8b4d85	1.0883032
8	0x3f973840	1.1814041
9	0x3f8f8a01	1.121399
10	0x3f9606ed	1.1720864
11	0x3f8b9319	1.0904266
12	0x3f8af664	1.0856442
13	0x3f906136	1.1279666
14	0x3f8bfbfe	1.0936277
15	0x3f8ea43b	1.1143869
16	0x3f979202	1.1841433
17	0x3f932df6	1.1498401
18	0x3f8b1d46	1.0868309
19	0x3f919e3e	1.1376417
20	0x3f885a68	1.065259
21	0x3f9014f5	1.1256396
22	0x3f8d4b53	1.1038612
23	0x3f97d467	1.1861695
24	0x3f92641d	1.1436802
25	0x3f972e1f	1.181095
26	0x3f8e1342	1.1099627
27	0x3f8b51e4	1.0884366
28	0x3f8ff37a	1.1246178
29	0x3f906088	1.1279459
30	0x3f8a4557	1.0802411
31	0x3f8e529d	1.1118962
32	0x3f92896f	1.1448191
33	0x3f96c499	1.1778747
34	0x3f8ec2cc	1.1153197
35	0x3f8a63d4	1.0811715
36	0x3f90a2fc	1.1299739
37	0x3f9da747	1.2316674
38	0x3f87233a	1.0557625
39	0x3f8cfdd1	1.1014959
40	0x3f932120	1.1494484
41	0x3f8c7753	1.0973915
42	0x3f89d647	1.0768517
43	0x3f96d630	1.1784115
44	0x3f94fcee	1.1639688
45	0x3f98a33e	1.1924818
46	0x3f889175	1.066939
47	0x3f8476b5	1.0348727
48	0x3f8be5e0	1.0929527
49	0x3f885ca7	1.0653275
50	0x3f83beed	1.0292641
51	0x3f9200db	1.1406511
52	0x3f855afb	1.041839
53	0x3f8c0487	1.0938882
54	0x3f89c0c3	1.0761951
55	0x3f8df80f	1.1091326
56	0x3f87c36b	1.0606512
57	0x3f84ae9f	1.036579
58	0x3f8852b5	1.065024
59	0x3f911acf	1.1336306
60	0x3f8e1893	1.110125
61	0x3f8e4d44	1.111733
62	0x3f93242c	1.1495414
63	0x3f85de9a	1.0458558

encoder.5.bias f4 [64]
0	0x3da75a48	0.08171517
1	0x3d464ed6	0.048415028
2	0x3d8f04af	0.06983315
3	0x3d827abc	0.06371066
4	0x3d8ca111	0.068666585
5	0x3da6f4f3	0.08152189
6	0x3d4e3bcc	0.050349995
7	0x3dcf20ca	0.10113676
8	0x3ded1044	0.11575368
9	0x3df3e823	0.11909511
10	0x3de4c6f4	0.1117076
11	0xbd1bfd64	-0.03808345
12	0x3caa9f79	0.020827996
13	0xbc87d26d	-0.016579831
14	0x3d9efe55	0.07763354
15	0x3d888807	0.0666657
16	0x3de11a71	0.109913714
17	0x3cb96f4b	0.022636076
18	0x3dba466a	0.09095462
19	0x3decbeb9	0.11559815
20	0x3e1ba4d9	0.15199603
21	0x3d195aaf	0.03744
22	0x3d29cfbd	0.04145788
23	0x3e27e802	0.16397098
24	0x3d1bbd28	0.03802219
25	0x3dc7d5ba	0.09757562
26	0x3e49a58f	0.19692062
27	0x3de5eb41	0.11226512
28	0x3ddd5b78	0.10808462
29	0x3dd320e1	0.103090055
30	0x3d8e3e69	0.069454975
31	0x3c7ad6a3	0.015309962
32	0x3d99db5c	0.075125426
33	0x3e1de8e7	0.15420876
34	0x3daeb46d	0.08530507
35	0x3d4a545f	0.04939687
36	0x3dd11aa6	0.10210161
37	0x3e1b5eea	0.15172926
38	0x3d4c1b10	0.049830496
39	0x3de61338	0.112341344
40	0x3d82e3f2	0.06391133
41	0x3d3e27b0	0.046424568
42	0x3d753e7e	0.05987405
43	0x3da45109	0.08023269
44	0x3defb47e	0.11704348
45	0x3de49c56	0.11162631
46	0x3d8126bf	0.06306218
47	0x3deb1f01	0.11480523
48	0x3e047f05	0.12939079
49	0x3c9a9f54	0.018874802
50	0xbcd8aa70	-0.026448458
51	0x3e06255f	0.13100193
52	0x3d48f47d	0.049061287
53	0x3d7027fb	0.05863188
54	0x3e46fbc2	0.19431975
55	0x3d75e5c0	0.06003356
56	0x3dacc52f	0.08436047
57	0x3d16823f	0.036745306
58	0x3d01c1b3	0.031678867
59	0x3d847558	0.06467694
60	0x3deb9234	0.115024954
61	0x3de2ba5c	0.110707015
62	0x3da409cb	0.0800968
63	0xbcfdf293	-0.030999457

encoder.5.running_mean f4 [64]
0	0x3e8ad0ff	0.27112576
1	0xbdd79c53	-0.10527863
2	0xbc1f3f0d	-0.009719622
3	0xbc92a766	-0.017902087
4	0x3e226cf6	0.15861878
5	0xbe88c0e4	-0.26709664
6	0x3f176f8b	0.59154576
7	0xbec1fc75	-0.37887922
8	0xbe94048c	-0.2890972
9	0xbdc9ea66	-0.09859161
10	0xbe5ae5f2	-0.2137678
11	0xbe26e6f1	-0.16299035
12	0x3e3b0221	0.18262531
13	0xbd53a42b	-0.051670235
14	0xbd38d6a3	-0.04512657
15	0x3d32847b	0.043583374
16	0xbf3c5939	-0.7357364
17	0x3e48bc07	0.19602977
18	0x3d2b653e	0.0418446
19	0xbecf4d51	-0.40488675
20	0x3eb08baa	0.34481555
21	0xbe684e9f	-0.22686242
22	0xbce1dca0	-0.027571023
23	0xbeaaac94	-0.33334792
24	0x3ea498e7	0.32147905
25	0xbd958862	-0.073014036
26	0x3e09388f	0.13400482
27	0x3eac7e41	0.33690074
28	0xbf0e2eb2	-0.5554
29	0xbef31d64	-0.4748336
30	0x3ef9463e	0.48686403
31	0x3df1dd4e	0.11809789
32	0xbdad25d8	-0.08454484
33	0xbe4c8507	-0.19972621
34	0x3e36c94a	0.17850223
35	0xba96311f	-0.0011458731
36	0x3e1d8389	0.15382208
37	0xbf2403fe	-0.6406859
38	0xbdd105b3	-0.10206165
39	0x3c961d3a	0.018324483
40	0xbe1f2664	-0.15541989
41	0x3d02299b	0.03177796
42	0x3e1de94a	0.15421024
43	0xbe12ca35	-0.14334948
44	0xbee1aa88	-0.44075418
45	0xbf66201a	-0.89892733
46	0x3e2653f9	0.1624297
47	0xbe682ac6	-0.22672567
48	0xbe928168	-0.28614354
49	0x3e0a62d6	0.13514265
50	0x3e21a966	0.15787277
51	0xbf0a23c3	-0.5396082
52	0x3e57333a	0.21015635
53	0xbca86fde	-0.020561155
54	0xbe6f06ec	-0.23342484
55	0x3b19e738	0.0023483764
56	0x3ec9e4ef	0.39432475
57	0x3cc25c7b	0.023725739
58	0x3e0697a7	0.13143788
59	0x3daa1fac	0.08306822
60	0xbe4adf22	-0.19811681
61	0xbd231190	-0.03981167
62	0xbe190905	-0.14944847
63	0x3ee68180	0.45020676

encoder.5.running_var f4 [64]
0	0x3edfddf0	0.43724012
1	0x3f31c027	0.69433826
2	0x3f12f313	0.5740215
3	0x3f351936	0.70741594
4	0x3edb2080	0.42798233
5	0x3f091ccd	0.5355957
6	0x3ebdb618	0.3705299
7	0x3f60e128	0.8784356
8	0x3f5c5f97	0.8608336
9	0x3f920db6	1.1410434
10	0x3f846577	1.0343465
11	0x3f13008b	0.57422704
12	0x3f11884f	0.56848615
13	0x3ef6a90d	0.4817585
14	0x3f288099	0.65821224
15	0x3f011331	0.5041991
16	0x3f1821a9	0.5942636
17	0x3f23099b	0.6368653
18	0x3f2bd98c	0.67128825
19	0x3f17a7a2	0.5924016
20	0x3f2b110a	0.66822875
21	0x3f0fb532	0.5613586
22	0x3f1a4a59	0.60269696
23	0x3f5da511	0.86579996
24	0x3f2178ad	0.6307476
25	0x3f451be5	0.7699569
26	0x3eeb56dc	0.45964706
27	0x3f02e07d	0.5112379
28	0x3f1c3dbf	0.6103172
29	0x3f2962d0	0.661664
30	0x3f16f59a	0.5896851
31	0x3f056557	0.5210776
32	0x3f4a5fb2	0.7905227
33	0x3f7d42fb	0.9893033
34	0x3f1f3813	0.6219494
35	0x3f07d4b9	0.53058964
36	0x3f180161	0.59377104
37	0x3f57f6e8	0.84361124
38	0x3f1696a1	0.5882359
39	0x3f3da8e7	0.7408585
40	0x3f4e2b5b	0.80534905
41	0x3f1a0e2b	0.6017787
42	0x3f185b59	0.59514385
43	0x3f12e7f6	0.57385194
44	0x3f60d5a4	0.8782599
45	0x3f4e53d0	0.8059664
46	0x3eebb9e8	0.46040273
47	0x3ee11ed6	0.43968838
48	0x3f2aba78	0.6669078
49	0x3ece1537	0.4025056
50	0x3f1bcdcd	0.608609
51	0x3f4c0c01	0.79705817
52	0x3f0b3d00	0.54389954
53	0x3f1760fb	0.59132355
54	0x3f0c19b5	0.54726726
55	0x3f38f4b1	0.7224837
56	0x3f177ecd	0.5917786
57	0x3f44ff29	0.76951844
58	0x3eed4524	0.46341813
59	0x3eefd540	0.46842384
60	0x3f5a30d4	0.85230756
61	0x3f730c3c	0.94940543
62	0x3f4aa3a1	0.7915593
63	0x3ea3c2b8	0.31984496

decoder.0.weight f4 [128, 64]
0	0x3dc97646	0.09837012
1	0x3d432770	0.047645032
2	0x3d2e405d	0.04254185
3	0x3df735b6	0.120707914
4	0x3d9e953c	0.07743308
5	0x3d7f89e2	0.062387355
6	0x3df250e2	0.118318334
7	0x3d14eeab	0.036360424
8	0xbdcb7f34	-0.099363714
9	0x3de7ad70	0.113123775
10	0x3d71c41f	0.059024926
11	0x3ded4c37	0.115868025
12	0xbb1beebe	-0.0023793424
13	0xbcb3364b	-0.021876475
14	0x3dc1b857	0.09458988
15	0x3e102a55	0.14078648
16	0xbce99123	-0.02851159
17	0xbdb5d619	-0.088787265
18	0x3dd62447	0.10456138
19	0x3dea78a3	0.11448791
20	0xbddb8909	-0.10719497
21	0x3dbbfed1	0.09179462
22	0x3c099a60	0.008398622
23	0x3dc5c3a6	0.096564576
24	0xbd7bc00f	-0.06146246
25	0xbcaf7d0e	-0.021421935
26	0x3dfe93c1	0.124305256
27	0xbcca28ad	-0.024677599
28	0x3e36d8ce	0.17856142
29	0xbc36cd17	-0.011157296
30	0xbc9be5a5	-0.019030401
31	0x3c3ab5f5	0.011395921
32	0x3db5fbe2	0.088859335
33	0x3dc300b8	0.095216215
34	0xbd5c80c2	-0.05383373
35	0xbda16741	-0.07881022
36	0xbd5d58d1	-0.05403978
37	0x3d8ebf11	0.06970037
38	0xbde4daa2	-0.111745134
39	0xbe2518ff	-0.16122817
40	0x3d060d3c	0.032727465
41	0x3d04109f	0.032242414
42	0x3d09e9f9	0.0336704
43	0x3e0b0e25	0.13579614
44	0x3c5a00f2	0.013305889
45	0x3d121ddb	0.035673004
46	0xbd8cac7e	-0.06868838
47	0x3e2f72f2	0.17133692
48	0x3d368e11	0.04456908
49	0x3d7a18d1	0.061058823
50	0x3e11cb03	0.14237599
51	0x3d96d390	0.07364571
52	0x3d453175	0.04814287
53	0x3e14e081	0.14538766
54	0x3e383a23	0.17990927
55	0x3bf707ec	0.007538786
56	0xbc07ac3a	-0.008280808
57	0xbdca7558	-0.09885663
58	0x3dd8dc5e	0.10588907
59	0x3de5651f	0.11200928
60	0x3d4968ce	0.049172215
61	0xbd104030	-0.035217464
62	0x3d6f7646	0.058462404
63	0xbae71393	-0.0017629735
64	0x3c027a28	0.007963695
65	0xbe0fdf3b	-0.1405
66	0x3dc47c98	0.09594077
67	0x3d11d41f	0.035602685
68	0x3ce43bd5	0.027860561
69	0xbe96da36	-0.29463357
70	0xbe054792	-0.13015583
71	0x3e123cef	0.14281057
72	0xbd13136f	-0.035907205
73	0x3da1a6d7	0.0789315
74	0xbcb4aee1	-0.022056045
75	0x3dfbdccc	0.12297973
76	0x3da1b628	0.07896072
77	0x3e49eca3	0.19719176
78	0x3d3cfee8	0.046141535
79	0xbdb4fb7b	-0.088370286
80	0xbcc8c8df	-0.024509845
81	0xbcc7a3cd	-0.024370098
82	0xbc541fdd	-0.01294705
83	0x3db2684d	0.087113
84	0x3dc3b79d	0.09556506
85	0xbb2510d1	-0.0025187025
86	0xbcb102e0	-0.021607816
87	0xbd3d8955	-0.04627355
88	0x3dc1a072	0.09454431
89	0xbdd2d86b	-0.10295185
90	0x3de42836	0.11140482
91	0x3debf052	0.11520447
92	0xbd7d6a88	-0.061869174
93	0xbddcbb41	-0.10777903
94	0x3e0395c5	0.12850101
95	0xbd99f43a	-0.07517286
96	0xbd01e19a	-0.03170929
97	0x3d59bd7c	0.053159222
98	0x3d977d0d	0.073968984
99	0x3d45f13f	0.048325773
100	0x3d825503	0.06363871
101	0xbb6e25ac	-0.0036338372
102	0xbd7cd443	-0.061725866
103	0x3d90b3af	0.07065522
104	0xbda20aec	-0.079122394
105	0xbb6a2b70	-0.0035731457
106	0xbbe21060	-0.0068989247
107	0xbe48672b	-0.19570605
108	0x3d903fcc	0.07043418
109	0x3baf97cb	0.0053586713
110	0x3d8dc12c	0.0692161
111	0xbdb44215	-0.08801667
112	0xbd130d56	-0.03590139
113	0x3d227e71	0.039671365
114	0xbd2a5992	-0.041589327
115	0x3df6f9db	0.12059375
116	0x3dff6f7f	0.12472438
117	0x3d5d5fae	0.054046325
118	0x3d8dff08	0.06933409
119	0xbd033b15	-0.032038767
120	0x3cdb068c	0.02673652
121	0xbc78c787	-0.01518429
122	0xbca92957	-0.020649595
123	0xbca75275	-0.02042506
124	0x3df06c9a	0.11739464
125	0x3d504226	0.050844334
126	0x3dae9ffe	0.0852661
127	0x3c60c130	0.0137179345
128	0xbd38b09c	-0.045090303
129	0xbcdcbd5b	-0.02694576
130	0xbe10205a	-0.14074841
131	0xbcce7f47	-0.025207175
132	0xbd94eb4e	-0.07271443
133	0xbe1a1255	-0.15046056
134	0xbcc8d792	-0.024516854
135	0x3d840f6a	0.064482525
136	0xbb9037c2	-0.004401178
137	0x3cd6eead	0.026236856
138	0xbaea007a	-0.0017852925
139	0x3e1c973f	0.15292071
140	0x3b918074	0.0044403616
141	0xbda8c194	-0.08240047
142	0x3da14cb7	0.0787596
143	0x3e35dcf0	0.17760062
144	0xbe23bb8a	-0.15989509
145	0x3dbdbf2a	0.09264977
146	0x3d057b72	0.03258843
147	0xbe548b58	-0.2075628
148	0x3dd1bb72	0.102408305
149	0x3e4e5f1f	0.20153473
150	0x3dfe605b	0.12420722
151	0x3ca61bb5	0.020276884
152	0x3d8c9466	0.06864242
153	0xbdf54860	-0.11976695
154	0x3d9f3b02	0.07774927
155	0x3b19f23c	0.002349033
156	0x3e413431	0.18867566
157	0xbd076576	-0.033055745
158	0xbd949652	-0.07255234
159	0x3e045eca	0.12926784
160	0xba6585b2	-0.0008755579
161	0xbdbace62	-0.09121396
162	0xbd9e9d8f	-0.07744896
163	0xbdff73d2	-0.12473263
164	0x3e025378	0.12727153
165	0xbd0f9b88	-0.035060436
166	0xbdeb168c	-0.1147891
167	0x3d950438	0.07276195
168	0x3da77e3e	0.08178376
169	0xbde8b4c0	-0.113626
170	0x3dc45b13	0.095876835
171	0x3d4940d2	0.049134083
172	0x3e0da6eb	0.13833205
173	0x3c1495db	0.009068931
174	0x3d90043e	0.07032059
175	0x3cf5d3a1	0.03000814
176	0xbe2a8fcc	-0.16656417
177	0x3d0348f4	0.032051995
178	0xbdf41d16	-0.1191961
179	0xbcd9ca90	-0.026585847
180	0x3d6636bf	0.056204554
181	0xbd3a904e	-0.045547776
182	0xbe4f8747	-0.20266448
183	0xbd5ce995	-0.0539337
184	0xbdb1e0a0	-0.08685422
185	0xbe26a2b1	-0.16273
186	0xbd9d1fd9	-0.0767209
187	0xbd0e69c7	-0.034768846
188	0xbe237067	-0.15960847
189	0xbe55a070	-0.20861983
190	0x3d1bd182	0.0380416
191	0x3e50ff69	0.20409931
192	0xbc943f14	-0.018096484
193	0x3cd94c87	0.026525749
194	0xb9c11448	-0.0003682694
195	0x3e0ca975	0.13736518
196	0xbddfc502	-0.10926248
197	0xbd0c69e1	-0.03428066
198	0x3d8035d0	0.06260264
199	0x3da4cace	0.080464944
200	0x3b98ddc7	0.00466511
201	0xbc82632f	-0.015916435
202	0x3d040678	0.03223273
203	0x3db24a5a	0.08705588
204	0x3da113d7	0.07865112
205	0xbdab7bd4	-0.08373228
206	0xbcb56b4e	-0.022145893
207	0x3e01bc83	0.12669568
208	0x3dff2d71	0.12459839
209	0x3d934e8d	0.07192717
210	0xbd98b481	-0.074563034
211	0xbc411bc8	-0.011786409
212	0xbcd3b58c	-0.025843404
213	0x3cb7018b	0.022339603
214	0xbc4aa73a	-0.0123689715
215	0x3e222998	0.1583618
216	0x3e2ad5a2	0.16683057
217	0xbcf03226	-0.029320788
218	0x3c39a571	0.011330948
219	0x3d79316d	0.06083815
220	0xbd1e57db	-0.038658004
221	0x3dfd5005	0.12368778
222	0x3d169e1b	0.036771875
223	0x3d13062f	0.03589457
224	0xbd116aef	-0.03550237
225	0xbd2290d8	-0.039688915
226	0xbd96deb8	-0.07366699
227	0xbbbc5daa	-0.0057484703
228	0x3d896eb6	0.067105696
229	0x3dc45158	0.095858276
230	0xbcca4338	-0.024690256
231	0xbdcccc4f	-0.09999906
232	0x3dda4d4a	0.10659273
233	0xbd48c302	-0.0490141
234	0x3d908061	0.07055736
235	0x3e1f67ec	0.15566987
236	0x3c782af8	0.015146963
237	0x3d48b66b	0.049002092
238	0x3e0da174	0.1383112
239	0x3c27d95a	0.010244692
240	0x3debdca9	0.11516697
241	0x3c93665e	0.017993148
242	0xbd009f93	-0.03140218
243	0xbd8ace59	-0.06777639
244	0xbbddd521	-0.0067697917
245	0x3bef1bd1	0.007297017
246	0xbe345fde	-0.17614695
247	0x3d450ade	0.048106067
248	0xbd865fda	-0.06561251
249	0xbd89f6fd	-0.067365624
250	0x3e02548f	0.12727569
251	0xbd009dbe	-0.031400435
252	0xbdceaabc	-0.10091159
253	0xbd4d2e08	-0.050092727
254	0x3ccf0729	0.025271969
255	0x3e0509d9	0.12992038

decoder.0.bias f4 [128]
0	0xbd9235ef	-0.07139193
1	0x3e048af6	0.12943634
2	0xbd2831bc	-0.041063055
3	0xbd2e8ec7	-0.04261663
4	0xbe432b35	-0.19059451
5	0x3ddb7e06	0.107173964
6	0x3e371676	0.17879662
7	0x3c1f5ef7	0.009727231
8	0xbd4e8daf	-0.05042809
9	0xbc587094	-0.0132104345
10	0x3d8ae4f8	0.067819536
11	0xbe10ff17	-0.14159809
12	0x3e0a304e	0.1349499
13	0xbdc84441	-0.097786434
14	0xbd92f6af	-0.071759574
15	0x3de69243	0.11258366
16	0xbdff74fa	-0.124734834
17	0x3dd32d53	0.10311379
18	0x3e413d0f	0.18870948
19	0x3d0221cd	0.031770516
20	0x3e1a3595	0.15059502
21	0xbb9b2db5	-0.0047356733
22	0x3dde8272	0.10864724
23	0x3d126012	0.03573615
24	0xbe1be280	-0.15223122
25	0xbc8cf1c4	-0.017205127
26	0x3dff6684	0.12470725
27	0xbd98327a	-0.07431503
28	0xbe171988	-0.14755833
29	0x3be5b321	0.007009879
30	0xbe4a286d	-0.19741984
31	0xbda33249	-0.079685755
32	0x3e4e977c	0.20174974
33	0x3e9ac9a8	0.30231977
34	0x3e7a4c0e	0.24443075
35	0x3d32a5f7	0.043615308
36	0x3e34b62b	0.17647617
37	0x3e3b39d8	0.18283784
38	0xbd949435	-0.07254831
39	0xbdcd47e9	-0.100234814
40	0xbe0fe798	-0.1405319
41	0xbd84c60a	-0.064830855
42	0x3d0119ce	0.03151875
43	0x3cbb74eb	0.0228829
44	0xbdd1b9a4	-0.10240486
45	0x3d93d8d7	0.07219093
46	0xbe469c9c	-0.19395679
47	0x3e4ccc5d	0.19999833
48	0xbc2d799c	-0.010588076
49	0x3e163658	0.14669168
50	0xbdd54082	-0.104126945
51	0xbdd0838a	-0.10181339
52	0xbc9e7b85	-0.019346008
53	0xbd5002db	-0.050783973
54	0x3df9e7bc	0.12202403
55	0x3da77e3c	0.08178374
56	0x3d0f76a3	0.03502525
57	0x3cd7412f	0.0262762
58	0xbda72420	-0.08161187
59	0x3bbe38bc	0.005805103
60	0x3ddd65b8	0.10810417
61	0x3e3a6f01	0.18206407
62	0x3cc2ec95	0.023794452
63	0x3dcc83c5	0.099860705
64	0xbe06c813	-0.1316226
65	0x3db3b73c	0.087751836
66	0x3dcc4fe3	0.09976175
67	0x3bc5c01f	0.0060348655
68	0xbc0c9082	-0.008579375
69	0x3dd64ab0	0.10463464
70	0xbe13afcd	-0.14422531
71	0x3c9844b7	0.018587453
72	0x3d020ea2	0.031752236
73	0xbbe45a26	-0.0069687543
74	0x3c35d219	0.0110974545
75	0x3c11806b	0.008880715
76	0x3e3833c0	0.17988491
77	0x3ce34dc5	0.027747044
78	0x3e6c76a5	0.23092134
79	0x3daa7ace	0.083242044
80	0xbb3f8146	-0.002922134
81	0x3e2d2a3c	0.16910642
82	0x3c60047c	0.013672944
83	0x3ceec04f	0.029144434
84	0xbcaaed6f	-0.02086517
85	0xbbe09a19	-0.0068543074
86	0x3e751a6e	0.23935863
87	0x3de0ed84	0.109828025
88	0x3d13d235	0.03608914
89	0xbd85e0b4	-0.06536999
90	0xb9912fd9	-0.00027692204
91	0x3c9fc4fd	0.019503111
92	0xbcdcb5ab	-0.026942095
93	0xbc5f4c28	-0.013628997
94	0xbc85fd14	-0.016356029
95	0x3e0e46f6	0.13894257
96	0x3d5c9a77	0.053858247
97	0xbe8c4967	-0.27399752
98	0xbdce5461	-0.10074688
99	0x3e1a7385	0.1508313
100	0x3d570b10	0.052500784
101	0x3e736cd4	0.23771983
102	0x3caa927d	0.020821804
103	0xbe2540df	-0.16138028
104	0x3e13b5fe	0.14424893
105	0x3c39f250	0.011349276
106	0x3da7ff63	0.08203008
107	0x3e79ca32	0.24393538
108	0x3ca20806	0.019779216
109	0x3d765694	0.06014116
110	0x3e064a93	0.13114385
111	0x3e2a9d78	0.16661632
112	0x3dad42f9	0.0846004
113	0xbdbb58e7	-0.09147816
114	0x3d512a2a	0.0510656
115	0xbe98ae56	-0.29820508
116	0x3d6e355a	0.05815635
117	0x3d980717	0.07423227
118	0xbd1cb25a	-0.038256027
119	0x3dfdbb4d	0.123892404
120	0xbd2b85db	-0.0418757
121	0x3de8e7fb	0.11372372
122	0xbd4694af	-0.04848164
123	0x3dab09c9	0.08351476
124	0x3e2b75f8	0.1674422
125	0xbd8294e7	-0.06376057
126	0xbd8a4baa	-0.06752713
127	0xbe64847e	-0.22316167
