save/best_mlp_model.pt (torch, 11607 bytes, 8 tensors)

model.0.weight f4 [64, 24]
0	0x3bc07768	0.0058736093
1	0x3de64a37	0.11244624
2	0x3c92fc8c	0.01794269
3	0x3e1e36b4	0.15450555
4	0xbdd86f07	-0.10568052
5	0xbc0545f3	-0.008134353
6	0x3def3803	0.11680605
7	0x3e110fb7	0.14166151
8	0xbd1104c2	-0.035404928
9	0x3d0d905b	0.034561496
10	0x3d1fa7d9	0.03897843
11	0x3da27bd3	0.07933774
12	0xbd803d49	-0.06261689
13	0xbd77cc0e	-0.060497336
14	0xbe08fe0b	-0.1337816
15	0x3e155b3c	0.14585584
16	0xbd191753	-0.03737576
17	0x3d9ca761	0.076491125
18	0xbe287924	-0.16452461
19	0xbd2f7bbe	-0.04284262
20	0x3e03b956	0.12863669
21	0x3e34a214	0.17639953
22	0x3e471874	0.19442922
23	0xbdc189f4	-0.094501406
24	0x3d8453c0	0.064612865
25	0xbe0b98d8	-0.13632524
26	0xbd3175f2	-0.043325372
27	0x3d5beef3	0.053694677
28	0xbeb3d8a3	-0.35126218
29	0x3c40c176	0.011764875
30	0xbbf527c1	-0.0074815457
31	0x3e3f34a6	0.18672428
32	0xbdf0b566	-0.11753349
33	0xbdac5641	-0.08414889
34	0xbe57f5df	-0.21089886
35	0xbcbac7c6	-0.022800338
36	0xbe490f63	-0.19634776
37	0x3ea006bf	0.31255147
38	0xbda8e4f6	-0.08246796
39	0x3dfb25a5	0.122630395
40	0x3e334458	0.1750654
41	0xbdd3ae84	-0.103360206
42	0xbe139d6f	-0.14415525
43	0x387c640d	6.017466e-05
44	0xbdb5cc15	-0.08876816
45	0x3d61c6bb	0.055121165
46	0xbc8364e3	-0.016039317
47	0xbcbcb029	-0.023033218
48	0x3d8b1db6	0.06792776
49	0x3e23cea8	0.15996802
50	0x3e442177	0.19153391
51	0xbdba317a	-0.09091468
52	0xbdbc97ef	-0.092086665
53	0x3dc2a7e9	0.095046826
54	0xbe5af439	-0.21382226
55	0xbd0dd6e7	-0.034628775
56	0x3e0ef4b3	0.13960533
57	0xbd82078b	-0.06349095
58	0xbe2fc5a1	-0.17165233
59	0x3c4b1f18	0.01239755
60	0x3deba5e6	0.11506252
61	0xbd3a305f	-0.045456287
62	0x3e2ea97c	0.1705684
63	0xbdd256e4	-0.10270479
64	0x3db32880	0.08747959
65	0xbe1b6c8e	-0.15178129
66	0xbe611bd7	-0.21983276
67	0x3e359287	0.17731677
68	0x3dd0ade5	0.10189418
69	0x3d149dba	0.036283232
70	0xbdf4c4f7	-0.119516306
71	0x3d7c839c	0.06164895
72	0x3ddd989c	0.108201236
73	0xbdc8813e	-0.09790276
74	0xbdb58329	-0.088629074
75	0x3df69ae0	0.12041259
76	0xbe50898a	-0.20364967
77	0xbd284ffe	-0.04109191
78	0x3ae7b0cb	0.001767659
79	0xbdf8d24e	-0.121494874
80	0x3e2c8fab	0.1685168
81	0xbd8bddcf	-0.06829416
82	0x3e6e9426	0.23298702
83	0xbdfad45c	-0.122475356
84	0x3d3e82d7	0.046511497
85	0x3e7e947a	0.24861327
86	0xbd947486	-0.072487876
87	0xbcfe15ab	-0.031016191
88	0xbe1fca39	-0.15604486
89	0x3d0acc81	0.033886436
90	0xbda37e91	-0.07983125
91	0xbbf5abbf	-0.0074972804
92	0xbd69a07f	-0.057037827
93	0x3cc49b74	0.023999907
94	0x3cca31ae	0.024681892
95	0xbdcfbb6d	-0.101431705
96	0x3bcab5ea	0.0061862366
97	0x3d9b26c4	0.07575753
98	0xbd53a147	-0.051667478
99	0xbde43948	-0.11143738
100	0xbe320949	-0.17386355
101	0xbce69fda	-0.028152395
102	0xbdff315e	-0.12460588
103	0x3e21cd79	0.15801038
104	0x3e30cbd1	0.1726525
105	0x3e3c8dc8	0.1841346
106	0xbe342fbe	-0.17596337
107	0x3bc7ee44	0.0061014015
108	0xbd09713a	-0.033555247
109	0x3d81754f	0.06321203
110	0xbb9d818f	-0.0048067044
111	0xbe18c946	-0.1492053
112	0x3d82e2ba	0.06390901
113	0x3e22aacf	0.15885471
114	0xbcfb4d19	-0.030676411
115	0x3e2c9dfc	0.16857141
116	0xbd7750b0	-0.060379684
117	0xbbdd518c	-0.006754106
118	0xbcb4e943	-0.022083884
119	0x3e1439fe	0.14475247
120	0xbc1acccd	-0.009448242
121	0x3db3830a	0.08765228
122	0x3df90fad	0.12161193
123	0x3d08f435	0.03343602
124	0x3e994288	0.29933572
125	0xbd655082	-0.05598498
126	0xbd821293	-0.06351199
127	0x3dae5764	0.08512762
128	0x3e13a814	0.14419585
129	0x3cd4f2dd	0.025994712
130	0x3dca5b90	0.098807454
131	0xbd3e2cb2	-0.046429344
132	0xbd93ca15	-0.072162785
133	0x3d7ab5d1	0.06120855
134	0xbe0aa066	-0.1353775
135	0xbd39fe17	-0.045408335
136	0xbe46830d	-0.1938593
137	0x3c40b87c	0.0117627345
138	0xbe079fe5	-0.13244589
139	0xbdb400a9	-0.087891884
140	0x3d43bff4	0.047790483
141	0xbd24e3d4	-0.040256336
142	0xbd54d1f4	-0.05195804
143	0xbd0c211b	-0.03421126
144	0x3b46916d	0.0030299083
145	0xbcccc037	-0.024993999
146	0x3e081190	0.1328795
147	0xbc2f1978	-0.010687225
148	0xbda3c789	-0.07997043
149	0xbe23c728	-0.15993941
150	0x3ce48a59	0.027898
151	0x3baedad9	0.0053361473
152	0xbe109d63	-0.14122538
153	0x3dcf3cb6	0.101190016
154	0xbe3122b0	-0.17298388
155	0x3de22624	0.11042431
156	0xbe2255a0	-0.15852976
157	0xbd8e3e6a	-0.06945498
158	0x3c3c0543	0.011475864
159	0xbdb1e681	-0.08686543
160	0x3e66763a	0.22506037
161	0x3d8aa595	0.067698635
162	0xbe10372a	-0.14083543
163	0x3e042ef3	0.12908535
164	0xbe072ebe	-0.13201424
165	0x3e1d0876	0.15335259
166	0xbc454d75	-0.012042393
167	0x3e096e5b	0.13421004
168	0x3dc62aa6	0.09676103
169	0x3e2d207c	0.16906923
170	0x3a05a3a8	0.0005097934
171	0x3d1e2656	0.03861078
172	0x3a122144	0.0005574415
173	0xbcf48201	-0.029847147
174	0x3c494241	0.012283863
175	0xbd42e268	-0.0475792
176	0x3e1e4a53	0.1545804
177	0x3e63ccce	0.22246096
178	0xbcae0fbd	-0.021247739
179	0xbd0e10e5	-0.03468408
180	0x3e56c273	0.20972614
181	0x3dac2c63	0.084069036
182	0x3dec30b7	0.11532729
183	0xbd9ab030	-0.07553136
184	0x3d382013	0.044952463
185	0x3df302a2	0.118657365
186	0xbe4f5278	-0.20246303
187	0xbd591fde	-0.053008907
188	0x3db2f633	0.08738365
189	0x3d91992d	0.07109294
190	0xbdc98c4e	-0.09841214
191	0x3e408283	0.18799786
192	0xbe85a56f	-0.26102778
193	0x3d17bea3	0.03704704
194	0x3d7ae03e	0.06124901
195	0x3da9dbbd	0.08293865
196	0x3e62c3c2	0.22144988
197	0xbe08bd97	-0.13353573
198	0x3ce3f886	0.027828466
199	0xbe3a3eed	-0.18188067
200	0xbe06d23a	-0.13166133
201	0xbe23f500	-0.16011429
202	0xbe27ed44	-0.16399103
203	0x3e63cfca	0.22247234
204	0xbd2393ec	-0.03993599
205	0xbdd7781a	-0.105209544
206	0x3d342e36	0.043989383
207	0x3e0ee7d6	0.13955626
208	0x3d38d8cc	0.04512863
209	0xbccb0c6b	-0.024786195
210	0xbe27078b	-0.16311471
211	0x3c93259e	0.017962273
212	0xbccad934	-0.024761774
213	0xbce19a3b	-0.027539363
214	0x3d3a5442	0.04549051
215	0x3d4d140e	0.050067954
216	0xbe308f15	-0.17242081
217	0xbddee071	-0.108826526
218	0xbe044f88	-0.12920964
219	0x3dd45727	0.103681855
220	0x3d9023aa	0.070380524
221	0x3d0ad713	0.033896517
222	0x3df7cb46	0.12099318
223	0xbd00121c	-0.03126727
224	0xbe142286	-0.14466295
225	0xbe5e5663	-0.21712641
226	0xbd116ca5	-0.035504002
227	0xbcc5509f	-0.024086295
228	0xbd74df1e	-0.059783094
229	0xbe3d76e7	-0.18502389
230	0xbc55e630	-0.013055369
231	0x3cdc27c9	0.02687444
232	0xbd8325b8	-0.06403679
233	0x3db2e08b	0.087342344
234	0x3e37700b	0.17913835
235	0xbe1c4be8	-0.15263331
236	0xbe1645d2	-0.14675072
237	0x3da8bf42	0.082396045
238	0xbd38ecf3	-0.045147847
239	0xbb191295	-0.0023357023
240	0xbe567276	-0.20942101
241	0xbe15b0dc	-0.14618248
242	0xbd6d5318	-0.057940573
243	0x3e33599e	0.17514655
244	0xbe073ce7	-0.13206826
245	0x3d1d69b5	0.03843089
246	0xbe53e25c	-0.20691818
247	0x3db56d98	0.08858794
248	0xbe751a38	-0.23935783
249	0xbe53141e	-0.20613143
250	0xbe107147	-0.14105712
251	0xbb0315c4	-0.0020001987
252	0xbe1e2fae	-0.15447876
253	0x3e13cc41	0.14433385
254	0x3c79f073	0.0152550815
255	0xbe2e29a8	-0.17008078

model.0.bias f4 [64]
0	0xbe4beccd	-0.19914551
1	0x3d05fd64	0.032712355
2	0xbcd7749e	-0.026300725
3	0xbd3dc36f	-0.046328958
4	0xbd40a2c5	-0.04703023
5	0x3b6de6af	0.0036300828
6	0xbccc71db	-0.024956634
7	0x3dc85807	0.09782415
8	0xbe4fdc4e	-0.20298883
9	0xbdc4210d	-0.095766164
10	0x3d5a2499	0.05325756
11	0xbe0fdee2	-0.14049867
12	0xbe317e43	-0.17333321
13	0x3e2a129c	0.16608661
14	0xbe4eeb69	-0.2020699
15	0xbe134b83	-0.14384274
16	0xbcaec758	-0.021335289
17	0xbddaefb6	-0.106902525
18	0x3e0d3881	0.13791086
19	0x3d75ba66	0.059992217
20	0xbd963f9c	-0.07336351
21	0x3db7a0df	0.089662306
22	0x3d980d63	0.07424428
23	0xbe44e861	-0.1922927
24	0x3e4daa51	0.20084502
25	0xbe28d35b	-0.16486876
26	0xbdf659d2	-0.120288506
27	0x3e389256	0.18024573
28	0xbd7415c0	-0.059591055
29	0xbd465801	-0.04842377
30	0x3d4e2505	0.050328273
31	0x3e1ecab0	0.15507007
32	0xbe4d8d9d	-0.20073552
33	0x3c660494	0.014039177
34	0x3cf06626	0.029345583
35	0x3dfd828a	0.12378414
36	0x3e4d7643	0.20064645
37	0xbe4d5891	-0.20053317
38	0xbdd58b15	-0.104269184
39	0xbe1e3aae	-0.15452072
40	0xbc65c842	-0.014024796
41	0xbd912ed6	-0.07089011
42	0x3e49deb5	0.19713862
43	0xbe2aeefb	-0.16692726
44	0x3dcc946c	0.09989247
45	0x3c972ab9	0.018452989
46	0x3e2766cc	0.16347808
47	0xb8c3a845	-9.329667e-05
48	0xbe50cfe9	-0.20391811
49	0x3d8e38a2	0.069443956
50	0x3c888755	0.016666094
51	0xbd91ddb2	-0.07122363
52	0x3dbc25f2	0.09186925
53	0xbd12e66e	-0.035864286
54	0x3b537f91	0.003227208
55	0x3e07e19c	0.13269657
56	0x3d73155d	0.059346545
57	0xbe4f595c	-0.20248932
58	0xbe360258	-0.17774332
59	0xbe2f87fc	-0.17141718
60	0x3d4f5bd6	0.05062469
61	0xbe390aa0	-0.1807046
62	0x3db942f9	0.09045977
63	0x3e18e752	0.14931992

model.1.weight f4 [64]
0	0x3f7b7dfc	0.9823911
1	0x3fa10a8f	1.2581347
2	0x3f7ecfcd	0.9953583
3	0x3f87de9b	1.0614809
4	0x3f87f252	1.0620825
5	0x3f80ecfd	1.0072323
6	0x3f77df5f	0.9682521
7	0x3f8338fd	1.0251766
8	0x3f95ba03	1.1697391
9	0x3f8bb7cc	1.0915465
10	0x3f776fad	0.9665478
11	0x3f8d37a7	1.1032609
12	0x3f7d6167	0.9897675
13	0x3f83b0d0	1.0288334
14	0x3f87d483	1.0611728
15	0x3f9286e5	1.1447417
16	0x3f8e1648	1.110055
17	0x3f90e328	1.1319323
18	0x3f7852ab	0.9700114
19	0x3f830431	1.0235654
20	0x3f7c14fc	0.9846952
21	0x3f996fb7	1.1987218
22	0x3f7ac6bd	0.979595
23	0x3f800f37	1.0004643
24	0x3f8d71d7	1.1050366
25	0x3f91e955	1.1399332
26	0x3f8d3f59	1.1034957
27	0x3f7f9ce8	0.99848795
28	0x3f8da5f1	1.1066266
29	0x3f8076cb	1.0036253
30	0x3f85c036	1.0449283
31	0x3f943554	1.1578774
32	0x3f8f3e6e	1.1190927
33	0x3f863a75	1.048659
34	0x3fa3a903	1.2785953
35	0x3f84abbf	1.0364913
36	0x3f77239d	0.96538717
37	0x3f783ff7	0.969726
38	0x3f85c0a5	1.0449415
39	0x3f8499a4	1.0359387
40	0x3f928b5e	1.1448781
41	0x3f81cec8	1.014123
42	0x3f95b39f	1.1695441
43	0x3f953c2b	1.1658987
44	0x3f8c88af	1.0979213
45	0x3f844a35	1.0335146
46	0x3f9514b2	1.1646941
47	0x3f953b34	1.1658692
48	0x3f7278b9	0.9471546
49	0x3f89fb62	1.0779841
50	0x3f78ed8e	0.9723748
51	0x3f9348bd	1.1506573
52	0x3f7b9642	0.9827615
53	0x3f8e0b52	1.1097205
54	0x3f98aaf9	1.1927177
55	0x3f83c12e	1.0293329
56	0x3f9d6587	1.2296609
57	0x3f934a68	1.1507082
58	0x3f7e3dc4	0.99312997
59	0x3f82dbe9	1.0223361
60	0x3f907eb2	1.1288664
61	0x3f94c946	1.1623924
62	0x3f8506e0	1.0392723
63	0x3f826a0e	1.0188615

model.1.bias f4 [64]
0	0x3cb5bd4c	0.02218499
1	0x3e6e361b	0.23262827
2	0x3d244905	0.0401087
3	0x3e2000eb	0.1562535
4	0x3e1bf4d7	0.15230118
5	0xbbaab86b	-0.0052099726
6	0x3d18783a	0.037224032
7	0x3debf7aa	0.115218475
8	0x3d202fa0	0.03910792
9	0x3c59ce8e	0.013293875
10	0xbd3d0940	-0.0461514
11	0xbc219c3e	-0.009863911
12	0x3dfda2c0	0.12384558
13	0xbd5cff79	-0.053954575
14	0x3dffbd71	0.12487305
15	0x3cf18c9b	0.029485991
16	0x3e806e1f	0.25084016
17	0x3e392ca3	0.18083434
18	0xbd5cd485	-0.053913612
19	0x3e393fa1	0.18090679
20	0xbbe19e1f	-0.0068853046
21	0x3e2fae94	0.1715644
22	0xbd7e1bd4	-0.062038258
23	0x3d63c825	0.055610795
24	0x3b85a809	0.0040788692
25	0xbbb4ab6b	-0.0055135987
26	0x3e24b7bc	0.16085714
27	0xbd7fc672	-0.06244511
28	0x3d32f685	0.04369213
29	0xbd39b962	-0.04534281
30	0xbd24ba80	-0.040216923
31	0x3e5738fd	0.21017833
32	0x3e2f0b6c	0.17094201
33	0x3a7378be	0.00092877063
34	0x3e626c3b	0.22111599
35	0x3e1ad8ee	0.15121815
36	0xbd580c0c	-0.052745864
37	0xbd1a3fdc	-0.037658557
38	0x3e2b2af9	0.16715612
39	0xbda764e6	-0.08173542
40	0x3d48b615	0.049001772
41	0x3e163a6c	0.14670724
42	0x3dd15bae	0.10222565
43	0x3e48cde5	0.19609793
44	0x3e45d2e1	0.19318725
45	0xbd06aa63	-0.032877337
46	0x3c7c1ad7	0.0153872585
47	0x3c868af8	0.016423687
48	0xbca76d87	-0.020437969
49	0xbd4c39bb	-0.049859744
50	0xbca27ddd	-0.019835407
51	0x3cf22881	0.02956033
52	0xbd21f2ba	-0.039538123
53	0x3d639b5b	0.05556808
54	0x3e64889e	0.2231774
55	0x3dffbaa5	0.124867715
56	0x3e625980	0.22104454
57	0xbb187f9a	-0.0023269416
58	0xbd8b824a	-0.0681196
59	0xbd317ddc	-0.04333292
60	0xbc74e4d1	-0.014947132
61	0x3e21f400	0.15815735
62	0xbda32676	-0.0796632
63	0x3e07e195	0.13269646

model.1.running_mean f4 [64]
0	0xbe5b7386	-0.21430787
1	0x3d610123	0.054932725
2	0xbd26256a	-0.040563025
3	0xbcda83b6	-0.026674133
4	0xbd5c692d	-0.05381124
5	0x3c38c323	0.011276993
6	0xbd050824	-0.032478467
7	0x3db354a4	0.08756378
8	0xbe52afda	-0.20574895
9	0xbdb47117	-0.08810633
10	0x3d8bb480	0.06821537
11	0xbe06d1cb	-0.13165967
12	0xbe2fae2c	-0.17156285
13	0x3e176ee6	0.14788398
14	0xbe52cb82	-0.20585445
15	0xbe00fea9	-0.12597145
16	0xbcf46fa8	-0.029838398
17	0xbdcffc8a	-0.1015559
18	0x3e0906ff	0.13381575
19	0x3d7924f6	0.060826264
20	0xbdb31693	-0.0874454
21	0x3dc78237	0.097416334
22	0x3da91c68	0.08257371
23	0xbe465e00	-0.19371796
24	0x3e599241	0.21247198
25	0xbe2efb93	-0.17088155
26	0xbdd7bb02	-0.10533716
27	0x3e32fe99	0.17479934
28	0xbd87d21d	-0.06631873
29	0xbd8d1d85	-0.06890396
30	0x3d272f49	0.04081658
31	0x3e184e8a	0.1487371
32	0xbe4a35a6	-0.19747028
33	0x3d32ef10	0.04368502
34	0x3cfa9659	0.03058927
35	0x3e1742f1	0.1477163
36	0x3e479f98	0.19494474
37	0xbe3dced2	-0.18535927
38	0xbda8e027	-0.08245879
39	0xbe1fd8c7	-0.15610038
40	0xbc96d528	-0.018412188
41	0xbd67332c	-0.056445286
42	0x3e476264	0.19471127
43	0xbe26312d	-0.16229697
44	0x3e08c702	0.13357165
45	0x3d111737	0.03542253
46	0x3e26dd5f	0.16295384
47	0x3c553494	0.013013024
48	0xbe685459	-0.22688426
49	0x3d15730b	0.036486667
50	0xbb18c1fe	-0.0023308988
51	0xbd91e912	-0.07124533
52	0x3dc06e63	0.093960546
53	0xbd23dc33	-0.04000492
54	0x3ca9806c	0.02069112
55	0x3df1dd71	0.11809815
56	0x3d8f5caa	0.07000096
57	0xbe5175cc	-0.20455092
58	0xbe24fd5b	-0.16112272
59	0xbe138737	-0.14407049
60	0x3d8674f1	0.065652736
61	0xbe21a215	-0.15784486
62	0x3db84d46	0.08999114
63	0x3e10c363	0.14137034

model.1.running_var f4 [64]
0	0x3ecec763	0.40386495
1	0x3ee80151	0.45313504
2	0x3eee1a20	0.46504307
3	0x3ebd9d69	0.37034157
4	0x3ea496aa	0.32146198
5	0x3e35725d	0.17719407
6	0x3e35a830	0.1773994
7	0x3f08b610	0.53402805
8	0x3edd2bd4	0.431975
9	0x3f4b524f	0.7942247
10	0x3f111237	0.5666842
11	0x3f621981	0.88320166
12	0x3eb97e95	0.36229387
13	0x3f127259	0.5720573
14	0x3ed66abc	0.41878307
15	0x3f208601	0.62704474
16	0x3e9b265f	0.30302712
17	0x3f11743d	0.5681799
18	0x3e90bc27	0.2826855
19	0x3f0a5e95	0.5405057
20	0x3f1fdb11	0.62443644
21	0x3e8db6af	0.2767844
22	0x3e9ff17b	0.31238922
23	0x3eda0923	0.42585096
24	0x3f3cc315	0.7373517
25	0x3ece9c02	0.403534
26	0x3ed1f2c7	0.41005537
27	0x3ed772c0	0.42079735
28	0x3f7a3e44	0.9775126
29	0x3e7114e5	0.23543127
30	0x3ed8eefd	0.42369834
31	0x3ec88ce0	0.3916998
32	0x3e6a2d95	0.2286895
33	0x3f4b6717	0.7945418
34	0x3e3284b6	0.17433438
35	0x3e87f1c3	0.26551637
36	0x3ec2d97c	0.38056552
37	0x3eaf3665	0.34221187
38	0x3e5b124e	0.21393701
39	0x3f13e190	0.57766056
40	0x3f39617e	0.72414386
41	0x3f5e0b88	0.86736345
42	0x3e32aeeb	0.17449538
43	0x3e2ace9f	0.16680382
44	0x3f3505f7	0.70712227
45	0x3f6a068f	0.9141626
46	0x3e9ce29d	0.30641642
47	0x3f2d1ac0	0.6761894
48	0x3ee843fc	0.45364368
49	0x3eaad3db	0.33364758
50	0x3f0c6e3e	0.54855716
51	0x3f0eff2e	0.55858123
52	0x3f0579c4	0.52138925
53	0x3e962bec	0.29330385
54	0x3f0ac5c2	0.54208004
55	0x3e896304	0.26833355
56	0x3e9ae279	0.3025091
57	0x3eaad5db	0.33366284
58	0x3eee674e	0.4656319
59	0x3f39b208	0.7253728
60	0x3e77c43e	0.24195954
61	0x3ee701b4	0.45118487
62	0x3e3ae5ce	0.18251726
63	0x3f858e96	1.0434139

model.4.weight f4 [2, 64]
0	0x3ddb537d	0.107092835
1	0x3e41923f	0.18903445
2	0x3d0f8298	0.035036653
3	0x3de3fb6f	0.111319415
4	0x3e331c4f	0.17491268
5	0xbdf987a0	-0.121840715
6	0x3db74dcc	0.089503855
7	0x3d99866f	0.07496344
8	0xbe566066	-0.2093521
9	0xbcf8fc63	-0.030393785
10	0x3d739ff2	0.059478708
11	0xbd4cba59	-0.049982402
12	0x3ddb047c	0.10694215
13	0xbdd55ad4	-0.10417715
14	0x3d48ceb6	0.04902526
15	0xbdbc4296	-0.09192388
16	0x3d1a7370	0.037707746
17	0x3d8b15f6	0.06791298
18	0xbda73d27	-0.08165961
19	0x3db3ab87	0.087729506
20	0xbd11c40b	-0.03558735
21	0x3db8dd37	0.090265684
22	0xbd076cf5	-0.033062894
23	0x3cd5d278	0.026101336
24	0xbe566cab	-0.20939891
25	0xbe316ac1	-0.1732588
26	0x3daa2d0e	0.08309375
27	0xbddabf34	-0.10681
28	0xbe132d86	-0.14372835
29	0xbda80595	-0.0820419
30	0xbd722190	-0.05911404
31	0x3e0b5902	0.13608173
32	0x3dddb141	0.10824824
33	0xbe1d1e86	-0.15343675
34	0x3d7912c2	0.060808904
35	0x3e03c47c	0.12867922
36	0xbc44919a	-0.011997605
37	0xbc3165a3	-0.010827455
38	0x3d8dd3b1	0.069251426
39	0xbdeb2fea	-0.11483748
40	0xbc1e8567	-0.00967536
41	0x3c3fe6a6	0.011712706
42	0xbe180d8d	-0.14848919
43	0x3e1f5198	0.1555847
44	0x3e3712b7	0.17878233
45	0xbe1a8eb6	-0.15093502
46	0xbe31bdf6	-0.1735762
47	0xbe3c5c77	-0.18394648
48	0x3ba750e8	0.0051060803
49	0x3c5359d9	0.012899839
50	0xbc861c60	-0.016370952
51	0x3bdb853b	0.006699232
52	0x3d513aa0	0.0510813
53	0xbe11c8b9	-0.14236726
54	0x3e7dcdd2	0.24785545
55	0x3e089cf7	0.13341127
56	0x3df35054	0.11880556
57	0xbe163cab	-0.1467158
58	0xbcca774b	-0.024715086
59	0x3bbc8abd	0.0057538436
60	0xbe6373be	-0.22212121
61	0x3e244878	0.1604327
62	0xbde97647	-0.11399513
63	0x3dde47dc	0.1085355
64	0xbd1fe8c6	-0.03904035
65	0xbde8da5e	-0.11369775
66	0xbca751f3	-0.020424819
67	0xbe0872a7	-0.13324986
68	0xbde1f4be	-0.11033009
69	0x3df7d432	0.1210102
70	0xbd818328	-0.06323844
71	0xbe160812	-0.14651516
72	0xbb180861	-0.0023198354
73	0x3e1c7bc4	0.15281588
74	0x3dacc079	0.08435149
75	0x3e0c3770	0.13693023
76	0x3c9066d5	0.01762716
77	0x3e00ef6f	0.12591337
78	0xbd77ca94	-0.060495928
79	0x3e14d269	0.1453339
80	0xbe29dc9e	-0.16588065
81	0xbe56e1c0	-0.20984554
82	0x3daeb328	0.08530265
83	0xbe1bdf13	-0.15221815
84	0xbdb0f043	-0.08639576
85	0xbe2708c3	-0.16311936
86	0x3d4c93b3	0.049945544
87	0xbdcb6064	-0.099304944
88	0x3e3582a3	0.17725615
89	0x3e0c72da	0.13715687
90	0xbe10983c	-0.14120573
91	0x3c586a4b	0.013208936
92	0x3d8bbed0	0.06823504
93	0xbc829801	-0.015941622
94	0x3d95b97e	0.073107705
95	0xbe08dbe6	-0.13365135
96	0xbe660f5a	-0.22466794
97	0x3e11f5f9	0.14253987
98	0xbe8fecf3	-0.28110465
99	0xbdcdbc91	-0.10045732
100	0x3d70221e	0.058626287
101	0xbc86a0d5	-0.016434113
102	0xbe268401	-0.16261293
103	0x3d1e2dfa	0.038618065
104	0x3e3266fd	0.174221
105	0xbdb99818	-0.09062213
106	0x3e4f80f4	0.20264035
107	0xbd3e50d2	-0.046463795
108	0xbb196087	-0.0023403482
109	0x3e126858	0.14297616
110	0x3e056d36	0.13029942
111	0x3d2d4456	0.0423015
112	0xbd660f99	-0.05616722
113	0x3e0fbc9b	0.14036791
114	0xbc43799d	-0.01193085
115	0x3e4b99f7	0.19882952
116	0x3dec80ca	0.11548002
117	0x3e2f3fd2	0.1711419
118	0xbe28c133	-0.1647995
119	0xbdb481c0	-0.0881381
120	0xbe50679d	-0.20352025
121	0x3dae4ef2	0.085111514
122	0x3dd75f8d	0.10516272
123	0x3de3260d	0.11091242
124	0x3db9bfc8	0.090697825
125	0xbe7fd198	-0.24982297
126	0x3db864cd	0.09003601
127	0xbc2a7140	-0.0104029775

model.4.bias f4 [2]
0	0x3d5d5521	0.054036263
1	0xbe0544b4	-0.1301449
