save/final_ae_model.pth (torch, 102018 bytes, 18 tensors)

encoder.0.weight f4 [128, 24]
0	0x3d83bf71	0.06432999
1	0xbdb49001	-0.08816529
2	0x3cb5654e	0.022143032
3	0xbdfbc10f	-0.122926824
4	0x3e06d03e	0.13165376
5	0xbd21b7f8	-0.039482087
6	0xbd0c8221	-0.034303788
7	0x3c78fb7a	0.015196675
8	0xbe014480	-0.12623787
9	0xbd23fc58	-0.040035576
10	0xbe50a626	-0.2037588
11	0xbd82418c	-0.06360158
12	0xbe02e993	-0.12784414
13	0xbe961391	-0.29311803
14	0xbdce1a76	-0.10063641
15	0xbb484903	-0.0030561097
16	0xbcee0f0e	-0.029059913
17	0x3ded85c3	0.11597779
18	0x3e302f47	0.17205535
19	0x3ccec9c2	0.02524269
20	0x3e394b92	0.18095234
21	0xbac7f9c0	-0.0015256926
22	0x3d241a21	0.04006398
23	0x3bd77600	0.006575346
24	0x3dbf7d40	0.093500614
25	0x3e49a5c9	0.19692148
26	0xbd6f1649	-0.058370862
27	0x3e473ee0	0.19457579
28	0x3e600b40	0.21879292
29	0x3e0f5251	0.13996245
30	0x3c44d17d	0.0120128365
31	0xbdb368d1	-0.087602265
32	0x3e0a262b	0.13491122
33	0x3d92f87e	0.071763024
34	0xbcc6a493	-0.024248397
35	0x3dd4a711	0.10383428
36	0xbc78eb16	-0.015192768
37	0xbdf97f95	-0.121825375
38	0xbddf0c7f	-0.10891055
39	0x3d30a682	0.043127544
40	0x3e0e88d0	0.13919377
41	0x3de86fdf	0.11349463
42	0x3d821f44	0.0635362
43	0xbe746760	-0.2386756
44	0xbdcf3d11	-0.10119069
45	0x3e2208c0	0.1582365
46	0x3e106d29	0.14104141
47	0xbe6d6652	-0.23183563
48	0xbcd17ed5	-0.025573174
49	0x3dead01c	0.11465475
50	0x3dd27b15	0.10277382
51	0xbd421544	-0.04738356
52	0xbe2c8631	-0.16848065
53	0x3d915693	0.07096591
54	0x3e22b8d8	0.15890825
55	0x3e1f0f99	0.15533294
56	0x3d78c65f	0.060736056
57	0x3e00c090	0.12573457
58	0xbc7ca38f	-0.015419855
59	0xbd910301	-0.07080651
60	0x3d405be6	0.04696264
61	0xbd6a3333	-0.057177734
62	0x3ddbc2f2	0.10730542
63	0x3e1b5f21	0.15173008
64	0xbd4fd470	-0.050739706
65	0xbe2ee566	-0.17079696
66	0xbd8bb54c	-0.06821689
67	0x3da551bf	0.080722325
68	0xbda7e332	-0.08197631
69	0x3e859357	0.26088974
70	0xbe423d19	-0.1896862
71	0x3e3c223b	0.18372433
72	0xbdef0825	-0.11671475
73	0xbe412f9e	-0.18865821
74	0x3d600eaf	0.054701503
75	0xbd94d020	-0.07266259
76	0x3d9ad496	0.07560079
77	0x3e28f068	0.16497958
78	0xbe6cebff	-0.231369
79	0xbce5b6c6	-0.028041255
80	0x3ca03dba	0.019560684
81	0xbe06d93c	-0.13168806
82	0x3ddff35e	0.109350905
83	0x3db08ac7	0.0862022
84	0x3c902738	0.017596826
85	0xbd8c3a34	-0.06847039
86	0x3e7b33c4	0.24531466
87	0xbdbbaf7b	-0.091643296
88	0x3bbb62a1	0.0057185446
89	0x3dc0ffe0	0.09423804
90	0x3e019c66	0.12657318
91	0xbe0f2b63	-0.13981394
92	0xbc72b887	-0.014814503
93	0x3dd7c4d9	0.105355926
94	0x3c9b4fc0	0.018958926
95	0xbd0d6086	-0.03451588
96	0x3e346310	0.17615914
97	0x3cb2e0d6	0.021835726
98	0xbd9ec2c0	-0.07751989
99	0x3c6410b3	0.013919997
100	0x3e7c6f4e	0.24651834
101	0xbdadc5af	-0.08484971
102	0xbceaf19d	-0.028679663
103	0xbdaa0c94	-0.0830318
104	0x3c4287dc	0.011873212
105	0x3e4165bb	0.18886463
106	0x3df60703	0.12013056
107	0x3de42838	0.111404836
108	0x3e0ac004	0.1354981
109	0xbd86e1e5	-0.06586055
110	0xbbe9fbfd	-0.007140635
111	0xbb9cd722	-0.004786388
112	0x3e131b3e	0.14365861
113	0x3cd65bd0	0.026166826
114	0xbe104a02	-0.14090732
115	0x3c4bf9d9	0.012449705
116	0xbe0893ad	-0.13337584
117	0x3da564b3	0.080758475
118	0xbe74baab	-0.23899333
119	0xbd2df291	-0.042467657
120	0xbd0ff120	-0.035142064
121	0x3dd9c6dc	0.106336325
122	0x3cb211fd	0.021737093
123	0xbe6247d5	-0.22097714
124	0xbe89ba08	-0.26899743
125	0x3d26e72b	0.040747803
126	0x3db43cc1	0.088006504
127	0xbdd81f86	-0.105528876
128	0xbe6b3747	-0.22970305
129	0x3e2833a8	0.16425955
130	0x3d20a366	0.03921833
131	0xbc2095b9	-0.009801322
132	0xbd265f11	-0.040618006
133	0x3e872e51	0.26402524
134	0x3dc82c1f	0.097740404
135	0x3d96dcaa	0.07366307
136	0xbd4cabdf	-0.049968597
137	0x3e150846	0.14553937
138	0xbdc7dd2d	-0.09758983
139	0x3e0f11f0	0.13971686
140	0xbdee7102	-0.11642648
141	0xbde3899d	-0.11110232
142	0x3d37fe00	0.044919968
143	0xbe3fe4e7	-0.18739663
144	0x3e185603	0.14876561
145	0x3e46a80a	0.1940004
146	0xbd0298cb	-0.031883996
147	0xbe71a432	-0.23597792
148	0xbe11dfd5	-0.14245541
149	0x3d9089f7	0.07057565
150	0xbccb6cb1	-0.024832102
151	0xbe45d748	-0.19320405
152	0xbcfddfa3	-0.030990427
153	0x3e300ce7	0.17192422
154	0xbe471a3a	-0.19443598
155	0xbd9b80f5	-0.07592956
156	0xbd69835c	-0.05701004
157	0xbe2a4e3d	-0.16631408
158	0x3c8a3395	0.0168703
159	0xbe0eb65a	-0.13936749
160	0xbe825da4	-0.25462067
161	0x3ddd6194	0.10809627
162	0x3df2fe20	0.11864877
163	0xbe372116	-0.17883715
164	0x3d8c74a5	0.06858186
165	0x3d6ef061	0.058334712
166	0x3e24f019	0.16107215
167	0x3d186fd3	0.03721602
168	0xbdd41414	-0.10355392
169	0xbe1dfbf2	-0.15428141
170	0x3e01d92c	0.12680501
171	0xbdb04f6f	-0.08608901
172	0x3e0fed09	0.14055265
173	0xbd9fa773	-0.0779561
174	0xbdf39804	-0.11894229
175	0xbe84ec0c	-0.2596134
176	0xbdcc07da	-0.09962435
177	0x3e3f78f4	0.18698484
178	0xbe2e2f27	-0.17010175
179	0x3d7ed98c	0.062219188
180	0xbe299e9f	-0.16564415
181	0x3cdb9563	0.026804632
182	0xbe30350c	-0.17207736
183	0x3ddf67bf	0.1090846
184	0x3e012bd3	0.12614374
185	0xbc58ed84	-0.013240222
186	0xbdc94555	-0.09827677
187	0x3dce98a4	0.10087708
188	0x3e2050e4	0.15655857
189	0x3d399fb8	0.045318335
190	0x3d83620b	0.064151846
191	0x3e2d6b65	0.16935499
192	0xbe2b6345	-0.16737087
193	0x3e1d4f17	0.15362202
194	0xbd94289c	-0.07234308
195	0xbe2e4632	-0.17018965
196	0xbda45643	-0.080242656
197	0xbe05ac93	-0.13054113
198	0xbdaa2145	-0.08307127
199	0x3d73594d	0.059411336
200	0x3e000fbe	0.12506005
201	0xbcfc7a1d	-0.030819947
202	0x3e5762e6	0.2103382
203	0x3d6d4ede	0.05793654
204	0xbe384c72	-0.17997912
205	0xbe0a31ee	-0.13495609
206	0x3cfcef55	0.030875841
207	0x3e0e1b14	0.13877517
208	0x3d597263	0.053087603
209	0x3bd35fc9	0.0064506275
210	0xbe289df5	-0.16466506
211	0xbe7da9f5	-0.24771865
212	0x3dc759c4	0.09733918
213	0xbd28917b	-0.041154366
214	0xbe0258df	-0.12729214
215	0xbda20d85	-0.07912735
216	0x3cb5ae17	0.02217774
217	0x3deb78b3	0.11497631
218	0x3d69e6fc	0.05710505
219	0x3dd721ff	0.10504531
220	0x3de6804b	0.11254939
221	0xbe01f3bb	-0.12690632
222	0x3d3a3cf1	0.045468275
223	0xbe9be808	-0.30450463
224	0xbe639582	-0.22225001
225	0xbcae323a	-0.021264184
226	0x3cd721ce	0.026261237
227	0xbb997fc7	-0.0046844217
228	0x3d4dc4ab	0.050236385
229	0xbead5e6a	-0.33861095
230	0x3d9bd63b	0.076092206
231	0xbda94e91	-0.082669385
232	0xbe98c312	-0.29836327
233	0x3ca8c929	0.020603733
234	0x3ddaff9c	0.10693285
235	0x3c9da0ae	0.019241657
236	0xbd635a81	-0.055506233
237	0xbdcfc72e	-0.101454124
238	0x3d83b3ca	0.064307764
239	0xbd434da9	-0.047681484
240	0x3ddde4db	0.10834666
241	0x3e3a2d8d	0.18181439
242	0xbde6140e	-0.11234294
243	0xbdd077f7	-0.101791315
244	0x3d49daa9	0.049280796
245	0x3daaa668	0.08332521
246	0x3d2f0638	0.04273054
247	0x3d78250a	0.0605822
248	0xbd9e332f	-0.07724606
249	0xbd754b4b	-0.059886258
250	0x3e3e423f	0.18579958
251	0x3db3f4c2	0.08786918
252	0x3df8439b	0.1212227
253	0x3e876cad	0.264501
254	0x3dbf5877	0.09343045
255	0x3daafaa1	0.08348585

encoder.0.bias f4 [128]
0	0x3e4e931e	0.20173308
1	0x3c9eb876	0.019375067
2	0x3e20f55f	0.15718602
3	0xbde103d0	-0.10987055
4	0xbe2107e5	-0.15725668
5	0xbd83751d	-0.06418822
6	0xbe21336f	-0.15742277
7	0x3d099b82	0.03359557
8	0x3d94f188	0.07272631
9	0xbdf516af	-0.11967217
10	0x3dca316e	0.09872709
11	0xbd5b3242	-0.053514726
12	0xbe11bd26	-0.1423231
13	0x3e13ab89	0.14420904
14	0xbcfb062a	-0.030642588
15	0xbc84b792	-0.016200814
16	0x3e42727a	0.18988982
17	0xbd2834b0	-0.04106587
18	0x3ba96c2f	0.005170367
19	0x3d04a076	0.03237959
20	0xbdf9b966	-0.12193565
21	0xbe4dcb8e	-0.20097181
22	0xbd0432c6	-0.032274984
23	0xbb746087	-0.003728898
24	0xbde78991	-0.113055356
25	0x3e020196	0.12695917
26	0xbe43e635	-0.19130786
27	0xbe190093	-0.14941625
28	0xbde5fcdf	-0.11229872
29	0xbdcf77b7	-0.10130256
30	0xbd4253d7	-0.047443237
31	0xbdd09407	-0.10184484
32	0x3ddd41f1	0.10803593
33	0x3e1e56d8	0.15462816
34	0x3db7305f	0.08944773
35	0xbd56f848	-0.052482873
36	0xbe049fcf	-0.12951587
37	0x3e2e9f52	0.17052963
38	0xbbbd502f	-0.005777381
39	0x3d2f0b4a	0.042735375
40	0xbc145210	-0.009052768
41	0x3dbf0c46	0.09328513
42	0x3c47df38	0.012199216
43	0xbe195948	-0.14975464
44	0xbe148cd1	-0.14506842
45	0x3d38a7c4	0.04508187
46	0x3de0a987	0.10969835
47	0x3d96f376	0.07370655
48	0xbdc37123	-0.095430635
49	0xbd91a1f6	-0.0711097
50	0x3e037cbb	0.1284055
51	0x3deb44fc	0.11487767
52	0x3e5103b1	0.20411564
53	0x3e40e7de	0.1883845
54	0x3e51b428	0.2047888
55	0xbe3ae61f	-0.18251847
56	0x3e005d14	0.12535506
57	0xbdfbee01	-0.12301255
58	0x3e247a58	0.16062295
59	0x3e1a1164	0.15045696
60	0x3db02615	0.086010136
61	0x3d95ece0	0.07320571
62	0xbe093357	-0.13398491
63	0xbbcc8cca	-0.0062423693
64	0xbdf4c36e	-0.11951338
65	0x3e3ea142	0.18616202
66	0x3d282b69	0.041057024
67	0x3d814a27	0.063129716
68	0x3e1bdb45	0.15220363
69	0xbe1be257	-0.1522306
70	0x3e228d36	0.1587418
71	0x3bde5fcf	0.0067863236
72	0xbdd0b805	-0.10191349
73	0x3e245fc8	0.16052163
74	0xbdbefbe2	-0.093253866
75	0x3e256cba	0.16154757
76	0x3e449578	0.19197643
77	0xbe4bd2cf	-0.19904636
78	0x3d983ea2	0.07433821
79	0x3dc87827	0.09788542
80	0xbd0b60b1	-0.03402776
81	0xbe3ff49a	-0.18745652
82	0x3de2b787	0.11070161
83	0xbc1ef8e6	-0.009702897
84	0xbd35f5cf	-0.044423874
85	0xbe2b0926	-0.16702709
86	0x3e3eb7a2	0.18624738
87	0x3e504a52	0.20340851
88	0xbdcea7bb	-0.10090586
89	0x3d5554b4	0.052082732
90	0xbdb0e034	-0.08636513
91	0xbd3dc155	-0.046326954
92	0xbd827c3f	-0.06371354
93	0x3d960ce5	0.07326678
94	0xbe155373	-0.14582615
95	0x3d15d48b	0.03657965
96	0xbb9bab58	-0.0047506504
97	0x3e3fc9d8	0.18729341
98	0xbca2e96a	-0.019886691
99	0xbe033f30	-0.12817073
100	0xbdee7c4b	-0.11644801
101	0x3e185b8e	0.14878675
102	0x3e40b693	0.18819647
103	0xbd1c4cc9	-0.038159166
104	0x3e24b1dc	0.16083473
105	0x3a821cf4	0.0009926842
106	0x3d2e6230	0.042574108
107	0x3c42f607	0.011899478
108	0x3e497df9	0.19676961
109	0xbcef5a1f	-0.029217778
110	0xbe433a80	-0.19065285
111	0x3e448136	0.19189915
112	0x3d0333b3	0.032031726
113	0xbd9cc7e9	-0.07655317
114	0xbc7ac474	-0.015305627
115	0x3e1fa1b7	0.15589033
116	0xbd14e2dd	-0.036349166
117	0xbe233a9d	-0.15940328
118	0x3e3bc092	0.18335178
119	0xbe1b20e0	-0.1514926
120	0xbe4485c7	-0.19191657
121	0xbdc9e9d5	-0.09859053
122	0xbe36a96e	-0.1783807
123	0xbad59dca	-0.0016297635
124	0xbd27bcad	-0.04095142
125	0x3e0da7da	0.13833562
126	0xbc328586	-0.010896092
127	0x3d7f199c	0.062280282

encoder.1.weight f4 [128]
0	0x3f7a6930	0.97816753
1	0x3f82e997	1.0227536
2	0x3f7ddc7a	0.99164546
3	0x3f82ed1d	1.0228611
4	0x3f7fb374	0.998832
5	0x3f826dea	1.0189793
6	0x3f7cad01	0.98701483
7	0x3f849ecb	1.036096
8	0x3f751c5f	0.95746416
9	0x3f824346	1.017678
10	0x3f77b530	0.96760845
11	0x3f77db8c	0.96819377
12	0x3f7b00d1	0.9804812
13	0x3f73c14b	0.95216817
14	0x3f752e58	0.9577384
15	0x3f81de44	1.0145955
16	0x3f7967ea	0.97424185
17	0x3f807209	1.0034801
18	0x3f780cc1	0.9689446
19	0x3f7bb6d8	0.9832587
20	0x3f810af0	1.0081463
21	0x3f81bca1	1.013569
22	0x3f7ae911	0.9801188
23	0x3f7776b0	0.9666548
24	0x3f6f1e04	0.93405175
25	0x3f83103b	1.0239328
26	0x3f7c5f78	0.98583174
27	0x3f807d88	1.0038309
28	0x3f87a81c	1.0598178
29	0x3f7f5c91	0.9975062
30	0x3f82c2ec	1.0215735
31	0x3f835484	1.0260167
32	0x3f7a61fd	0.9780577
33	0x3f78a472	0.97125924
34	0x3f81068f	1.0080127
35	0x3f82a427	1.0206345
36	0x3f7dbbda	0.99114764
37	0x3f820dca	1.0160458
38	0x3f84dd8f	1.0380114
39	0x3f7f6be8	0.99774027
40	0x3f828f63	1.0200008
41	0x3f82a23c	1.020576
42	0x3f8183d2	1.0118353
43	0x3f7d6c9f	0.9899387
44	0x3f817dff	1.0116576
45	0x3f7984d6	0.97468317
46	0x3f852416	1.0401638
47	0x3f8395a1	1.0280038
48	0x3f7e1445	0.9924968
49	0x3f80bb8e	1.0057237
50	0x3f7dbdf0	0.99117947
51	0x3f809e99	1.00484
52	0x3f7ec055	0.99512225
53	0x3f80ffef	1.0078105
54	0x3f7fd2e7	0.99931186
55	0x3f7d9e53	0.9906971
56	0x3f801d29	1.0008899
57	0x3f7bcb8d	0.9835747
58	0x3f789931	0.9710875
59	0x3f853bc3	1.0408863
60	0x3f82667a	1.0187523
61	0x3f7e2ffc	0.9929197
62	0x3f801f7c	1.0009608
63	0x3f849ac6	1.0359733
64	0x3f8199d4	1.012507
65	0x3f8646d4	1.0490365
66	0x3f8165d0	1.0109196
67	0x3f84c0f1	1.0371381
68	0x3f783c4c	0.96967006
69	0x3f815c3a	1.010627
70	0x3f8115fe	1.0084836
71	0x3f801550	1.0006504
72	0x3f77e250	0.968297
73	0x3f84c425	1.0372359
74	0x3f7d9780	0.99059296
75	0x3f80ca6d	1.0061775
76	0x3f79df0d	0.97605973
77	0x3f80e362	1.0069392
78	0x3f7a91a8	0.97878504
79	0x3f7d9d41	0.99068075
80	0x3f791706	0.97300756
81	0x3f825966	1.0183532
82	0x3f73000e	0.9492196
83	0x3f7d4ac4	0.9894221
84	0x3f7b9c34	0.9828522
85	0x3f7af42f	0.98028845
86	0x3f81c2ed	1.0137612
87	0x3f854c6b	1.0413946
88	0x3f78914d	0.9709671
89	0x3f855492	1.0416434
90	0x3f7dfb94	0.99212
91	0x3f78f410	0.9724741
92	0x3f813d4c	1.0096831
93	0x3f7f09e8	0.9962449
94	0x3f7bb8f9	0.9832912
95	0x3f83c0e0	1.0293236
96	0x3f72e086	0.94873846
97	0x3f80898f	1.004198
98	0x3f7dcaca	0.99137557
99	0x3f842418	1.0323515
100	0x3f806cbd	1.0033184
101	0x3f803b9b	1.001819
102	0x3f87e9ca	1.0618222
103	0x3f7bc642	0.9834939
104	0x3f8298f7	1.0202931
105	0x3f83f6c0	1.0309677
106	0x3f80461b	1.0021394
107	0x3f83d1e4	1.0298429
108	0x3f7dc333	0.99125975
109	0x3f7a0559	0.9766441
110	0x3f871a52	1.0554907
111	0x3f83138c	1.024034
112	0x3f8332f6	1.0249927
113	0x3f7ba9f6	0.98306215
114	0x3f70f299	0.94120175
115	0x3f82bd47	1.0214013
116	0x3f7c84ba	0.98640025
117	0x3f7b27bb	0.981075
118	0x3f818134	1.0117555
119	0x3f7921b2	0.9731704
120	0x3f82870c	1.0197463
121	0x3f7b6abd	0.98209745
122	0x3f85ce4d	1.0453583
123	0x3f79114e	0.9729203
124	0x3f6e6ab5	0.9313157
125	0x3f8519a0	1.0398445
126	0x3f8173dc	1.0113482
127	0x3f80a0d7	1.0049084

encoder.1.bias f4 [128]
0	0xbdc0021a	-0.09375401
1	0xb997c3fa	-0.00028946978
2	0xbc8a9d58	-0.01692073
3	0x3d5d7c89	0.054073844
4	0xbc0305a3	-0.007996949
5	0xbc34902b	-0.0110207
6	0xbdb61098	-0.08889884
7	0x3bb2bb30	0.0054544434
8	0x3c420f0a	0.011844406
9	0xbd2b5568	-0.041829497
10	0x3c012a6e	0.007883651
11	0xbdaad420	-0.08341241
12	0x3da842e5	0.08215884
13	0xbc4f9a89	-0.012671121
14	0xbcb08a48	-0.021550313
15	0xbd969f74	-0.07354632
16	0x3d59ff9d	0.053222287
17	0x3d63ecb1	0.05564565
18	0xbc392f7e	-0.011302827
19	0xbdb398c0	-0.08769369
20	0xbd5d44f6	-0.054020844
21	0xbda8e484	-0.08246711
22	0xbc855d04	-0.016279705
23	0xbc3104de	-0.010804383
24	0xbc124bec	-0.008929234
25	0x3dcc54e8	0.09977132
26	0xbd0e127b	-0.034685593
27	0x3ba2aa73	0.004964167
28	0xbd478f81	-0.04872084
29	0x3c1dade8	0.009623982
30	0xbdde9df7	-0.10869973
31	0xbd59c8dd	-0.053170074
32	0xbcbae829	-0.02281578
33	0xbc6059e6	-0.013693308
34	0x3be70f46	0.0070513813
35	0x3d1b00d3	0.037842583
36	0xbd05e544	-0.032689348
37	0x3bc74bb9	0.006082025
38	0xbd826f5d	-0.06368897
39	0xbc2f99be	-0.010717807
40	0x3d78c0bf	0.060730692
41	0xbd3fd538	-0.0468342
42	0xbb03de8c	-0.0020121662
43	0xba84e8ae	-0.0010140145
44	0xbc619ffe	-0.013771055
45	0xbdbd0d38	-0.09231037
46	0xbdd9f34d	-0.10642109
47	0xbdb94a15	-0.09047333
48	0xbcd0fa2c	-0.025509916
49	0x3c1bf6ed	0.009519321
50	0xbe4f76d5	-0.20260175
51	0xbc4cbe49	-0.012496539
52	0xbc89f4fe	-0.016840454
53	0x3a9222c5	0.0011149278
54	0x3cb081ec	0.021546327
55	0xbcb156bb	-0.021647802
56	0xbcb42436	-0.021989923
57	0xbd7bdbb3	-0.06148882
58	0xbca5de18	-0.020247504
59	0xbcdb21af	-0.02674946
60	0xbcef9997	-0.029248042
61	0xbdac30f0	-0.084077716
62	0x3b9d2337	0.0047954577
63	0x3d4b110a	0.049576797
64	0x3d31e019	0.043426607
65	0x3d8d5419	0.06900806
66	0x3d007cf4	0.031369165
67	0xbdca512f	-0.09878766
68	0xbbcd8347	-0.006271753
69	0xbdf6e91e	-0.12056182
70	0x3d50cb0d	0.050974894
71	0x3ca1a2a8	0.01973088
72	0xbd6931b0	-0.05693215
73	0x3c8bf2e1	0.017083587
74	0xbe0ba7aa	-0.13638178
75	0xbcafbf80	-0.021453619
76	0x3d6fa1e2	0.058503993
77	0xbc1688d4	-0.009187896
78	0x3cf50be7	0.029912902
79	0xbd15c722	-0.03656686
80	0xbd20513b	-0.039139967
81	0xbd3f7fa2	-0.04675258
82	0xbcdc8c12	-0.02692226
83	0xbcb0069b	-0.021487525
84	0xbd1be1e9	-0.03805724
85	0x3cb2d51c	0.021830134
86	0xbdbc4cc9	-0.09194333
87	0x3d1a94be	0.037739508
88	0xbd826b25	-0.063680924
89	0xbbad5803	-0.005290033
90	0xbd2b90ec	-0.041886255
91	0xbc6f9db2	-0.014625
92	0xba16ffec	-0.0005760181
93	0xbb8ced52	-0.0043007517
94	0x3aa192f5	0.0012327122
95	0xbd97a58a	-0.07404621
96	0x3b4d4f9d	0.003132797
97	0xbd092b73	-0.033488702
98	0x3d8ff092	0.07028307
99	0xbdca947b	-0.09891602
100	0x3bc8d708	0.0061291493
101	0x3b73682c	0.0037140949
102	0xbd2f4390	-0.042789042
103	0xbd94b861	-0.0726173
104	0xbc1b0478	-0.009461515
105	0x3cf192e1	0.029488983
106	0xbd7dc986	-0.061959766
107	0xbd85480c	-0.065078825
108	0xbd08e264	-0.033419028
109	0xbb09e35f	-0.0021040065
110	0xbc017ad8	-0.007902823
111	0xbda22345	-0.079168834
112	0x3dabbc26	0.08385496
113	0xbb566922	-0.0032716473
114	0x3be68802	0.0070352564
115	0xbda6d1c1	-0.08145476
116	0xbcb1634c	-0.021653794
117	0xbb26359f	-0.002536155
118	0xbdb67099	-0.08908195
119	0xbbaa9bb8	-0.0052065514
120	0xbd9860d1	-0.07440341
121	0xbde0271f	-0.10944962
122	0xbd74ed41	-0.059796575
123	0xbc11ca2c	-0.008898299
124	0x3d72c22a	0.0592672
125	0xbcec6f5e	-0.028861698
126	0xbda2bc97	-0.07946127
127	0x3ca59a6a	0.020215232

encoder.1.running_mean f4 [128]
0	0x3e5f0b1c	0.21781582
1	0x3ccf376e	0.025294986
2	0x3e1af643	0.15133004
3	0xbdcc8cbc	-0.099877805
4	0xbe30fa02	-0.1728287
5	0xbd857a99	-0.06517524
6	0xbe12d3c6	-0.14338598
7	0x3d1b14c6	0.037861608
8	0x3d48684e	0.048927598
9	0xbdb72553	-0.08942666
10	0x3dabf81c	0.083969325
11	0xbd6dedc0	-0.058088064
12	0xbe09a706	-0.1344262
13	0x3e111df6	0.14171585
14	0xbd05d33a	-0.032672144
15	0xbbe5f3c3	-0.007017584
16	0x3e4b9b99	0.19883575
17	0xbd6f6848	-0.05844906
18	0x3bef34be	0.0072999885
19	0x3d2405cd	0.040044595
20	0xbdd3b707	-0.10337644
21	0xbe53b84d	-0.20675774
22	0xbd3def52	-0.04637081
23	0xbb6e091e	-0.0036321352
24	0xbddc5d24	-0.10759953
25	0x3e02180f	0.1270449
26	0xbe3e3a46	-0.18576917
27	0xbe20b9d4	-0.15695888
28	0xbdd66dd0	-0.10470164
29	0xbd98b5dd	-0.07456563
30	0xbcf90674	-0.030398585
31	0xbdba8786	-0.0910788
32	0x3dca3c6c	0.09874806
33	0x3e1263d8	0.142959
34	0x3dae7046	0.08517508
35	0xbd737d9f	-0.059445973
36	0xbe19b61d	-0.15010877
37	0x3e3b04a7	0.18263493
38	0xbc90f949	-0.017696993
39	0x3d9f4af6	0.077779695
40	0xbc2a9c26	-0.010413205
41	0x3db32aa3	0.08748367
42	0x3c52b298	0.012859963
43	0xbe22b5c0	-0.15889645
44	0xbe1eb35e	-0.1549811
45	0x3d429978	0.04750964
46	0x3ddb744f	0.107155435
47	0x3dad39d1	0.08458293
48	0xbdc7dc1c	-0.097587794
49	0xbd92125a	-0.071324065
50	0x3de3fb5b	0.111319266
51	0x3ddfe25e	0.10931848
52	0x3e58c1c9	0.21167673
53	0x3e46131e	0.1934323
54	0x3e3f7928	0.18698561
55	0xbe469d50	-0.19395947
56	0x3dff9637	0.12479823
57	0xbdf00e93	-0.1172153
58	0x3e1d3675	0.15352805
59	0x3e134dd2	0.14385155
60	0x3d8af1cd	0.06784401
61	0x3d981bfc	0.074272126
62	0xbe08e0f1	-0.13367058
63	0x3ad6d7b7	0.0016391192
64	0xbdf41f22	-0.119200006
65	0x3e4ac1e5	0.19800527
66	0x3d05afc2	0.03263832
67	0x3d7737ff	0.060356136
68	0x3e094eec	0.13409013
69	0xbe0c04ba	-0.13673678
70	0x3e0d0a9f	0.13773583
71	0x3c8b438a	0.016999979
72	0xbdce190b	-0.1006337
73	0x3e16ef09	0.14739622
74	0xbdb7c9dc	-0.089740485
75	0x3e3636cb	0.1779434
76	0x3e44c8e9	0.19217266
77	0xbe270842	-0.16311744
78	0x3d8dc254	0.06921831
79	0x3df37844	0.11888173
80	0xbcdfc790	-0.027316839
81	0xbe3173fe	-0.17329404
82	0x3df602ac	0.12012228
83	0xbc0b4668	-0.008500673
84	0xbd44289b	-0.047890287
85	0xbe381380	-0.17976189
86	0x3e59464b	0.21218221
87	0x3e4cc4c0	0.19996929
88	0xbde1a798	-0.11018294
89	0x3d4c7551	0.04991657
90	0xbd8f7954	-0.070055634
91	0xbd9035a4	-0.07041481
92	0xbd4e5bb6	-0.05038043
93	0x3d816ae5	0.06319217
94	0xbe06a522	-0.1314893
95	0x3d422ed0	0.047407925
96	0xbcc22302	-0.023698334
97	0x3e3896e7	0.18026315
98	0x3b0a3694	0.002108966
99	0xbe046b21	-0.12931491
100	0xbe00b5ef	-0.12569402
101	0x3e11d7a1	0.14242412
102	0x3e48349a	0.19551316
103	0xbce6c77d	-0.028171295
104	0x3e1b092e	0.1514022
105	0x3c069b1d	0.008215693
106	0x3d580502	0.05273915
107	0xbbe43b4b	-0.006965076
108	0x3e3ae78f	0.18252395
109	0xbc5d3bbd	-0.013503012
110	0xbe424cb0	-0.18974566
111	0x3e448ad1	0.1919358
112	0x3cbfdb0e	0.023419883
113	0xbd9e6d3a	-0.07735677
114	0xbc8b0894	-0.016971864
115	0x3e077456	0.13227972
116	0xbd82d62a	-0.06388505
117	0xbe3b1de0	-0.18273115
118	0x3e3d95dc	0.18514198
119	0xbe079c5a	-0.13243237
120	0xbe3e574d	-0.1858799
121	0xbdabe274	-0.08392802
122	0xbe25675f	-0.16152714
123	0x3b2e1337	0.0026561746
124	0xbce6d49d	-0.028177554
125	0x3dfb0670	0.12257087
126	0xbc5df58d	-0.013547313
127	0x3d795821	0.060875062

encoder.1.running_var f4 [128]
0	0x3f468bf3	0.77557296
1	0x3e883d0a	0.2660907
2	0x3ede8d29	0.43467072
3	0x3e41bcb2	0.18919638
4	0x3e32db44	0.17466456
5	0x3ee4875e	0.44634527
6	0x3f080d80	0.531456
7	0x3e87148f	0.26382872
8	0x3ec6b205	0.38807693
9	0x3f38ed85	0.72237426
10	0x3ec7b0ad	0.3900198
11	0x3f3b2b4a	0.7311293
12	0x3ec6ba2a	0.38813907
13	0x3f137b1f	0.5760974
14	0x3eac3ec8	0.33641648
15	0x3e515bd7	0.2044519
16	0x3ec518c1	0.38495448
17	0x3e4270a9	0.18988289
18	0x3e994fc0	0.29943657
19	0x3e1ce7d9	0.15322818
20	0x3f0b9840	0.5452919
21	0x3e30d988	0.17270482
22	0x3ee74121	0.45166877
23	0x3ebcadb2	0.3685127
24	0x3eae0831	0.33990625
25	0x3e59aa2d	0.21256323
26	0x3e9f6479	0.31131342
27	0x3ea73844	0.32660115
28	0x3e5ac946	0.21365842
29	0x3f082dc2	0.5319482
30	0x3e800cf5	0.25009885
31	0x3f499633	0.7874481
32	0x3ec0047e	0.37503427
33	0x3ea1edba	0.31626683
34	0x3e86e1e5	0.2634422
35	0x3e2cdc97	0.16881023
36	0x3e58ec94	0.21183997
37	0x3ea7b81f	0.3275766
38	0x3e350326	0.17676982
39	0x3eb8f48b	0.3612407
40	0x3e18f6a7	0.1493784
41	0x3ee888c2	0.45416838
42	0x3e7313db	0.23738043
43	0x3ebe66bc	0.37187755
44	0x3e83d74d	0.257502
45	0x3f01457e	0.5049666
46	0x3ed8c404	0.42337048
47	0x3e45667e	0.19277379
48	0x3e60c156	0.21948752
49	0x3ea39658	0.3195064
50	0x3e3ed9e2	0.18637803
51	0x3e856751	0.26055387
52	0x3e92320a	0.28553802
53	0x3e96e580	0.2947197
54	0x3ed6e21a	0.41969377
55	0x3e54c847	0.20779525
56	0x3ee707bd	0.4512309
57	0x3ee52c24	0.4476024
58	0x3efd0b6e	0.49422783
59	0x3e80f666	0.25187987
60	0x3eaf0449	0.34182957
61	0x3e620d34	0.22075349
62	0x3e7ee4fe	0.24892041
63	0x3e9f1b2a	0.31075412
64	0x3e41069c	0.18850178
65	0x3e2a1baa	0.16612116
66	0x3ed5a5ae	0.41727966
67	0x3f1eb912	0.62001145
68	0x3e8d7350	0.2762704
69	0x3e99a516	0.30008763
70	0x3e325745	0.17416103
71	0x3f0a7b52	0.5409442
72	0x3e5e8982	0.21732143
73	0x3ea18055	0.31543222
74	0x3eb0c1fd	0.34523
75	0x3e47fb00	0.19529343
76	0x3ea5af3e	0.32360262
77	0x3e956192	0.29176003
78	0x3e99e244	0.3005544
79	0x3e822d42	0.25425154
80	0x3eac6fb6	0.3367898
81	0x3f04bba8	0.5184884
82	0x3ed55feb	0.41674742
83	0x3e8562f9	0.26052073
84	0x3f9af42a	1.2105763
85	0x3e4b9491	0.19880892
86	0x3fa7d395	1.3111445
87	0x3e358bef	0.17729162
88	0x3f03a007	0.5141606
89	0x3e0eda23	0.139504
90	0x3f463936	0.77431047
91	0x3e72599a	0.23666993
92	0x3f4db0c4	0.8034785
93	0x3ebd6245	0.36989036
94	0x3eaa14a1	0.33218864
95	0x3f70af71	0.940177
96	0x3ec419c5	0.3830091
97	0x3f0b7877	0.5448069
98	0x3e5ce99f	0.21573494
99	0x3e37f951	0.179662
100	0x3e8dbec2	0.276846
101	0x3e9f564c	0.31120527
102	0x3e92ab14	0.28646147
103	0x3e4f5353	0.2024663
104	0x3e6a5f0c	0.2288782
105	0x3e50a5a8	0.20375693
106	0x3efbd1b5	0.4918343
107	0x3ee979d8	0.45600772
108	0x3ec04e2a	0.37559634
109	0x3ed88b6b	0.42293867
110	0x3e417102	0.18890765
111	0x3e8a1448	0.26968598
112	0x3ec6ff43	0.38866624
113	0x3eada0b4	0.3391167
114	0x3ef63ee3	0.48094854
115	0x3efcd780	0.49383163
116	0x3ea3007f	0.31836316
117	0x3eb6ce86	0.3570444
118	0x3f6ccb48	0.9249768
119	0x3eaf51b7	0.3424203
120	0x3eb627a8	0.3557713
121	0x3eefed50	0.46860743
122	0x3e8c2811	0.27374318
123	0x3ed233db	0.41055188
124	0x3eaa781b	0.33294758
125	0x3ea5696a	0.32306987
126	0x3f847151	1.0347081
127	0x3e274128	0.16333449

encoder.4.weight f4 [64, 128]
0	0xbdc544f1	-0.0963229
1	0x3d10a6d8	0.035315365
2	0x3d596c9c	0.053082094
3	0xbd32548e	-0.04353767
4	0x3c99208b	0.018692276
5	0xbc14f391	-0.009091274
6	0x3bf6e4f9	0.00753462
7	0xbdc9c7ed	-0.09852586
8	0x3cc4202c	0.023941122
9	0xbdeee91a	-0.11665554
10	0x3d4c9f5f	0.049956676
11	0x3c93d55f	0.01804608
12	0xbdef6759	-0.11689634
13	0x3b9709a0	0.0046093017
14	0x3d366b26	0.04453578
15	0xbd913950	-0.070910096
16	0x3da3e0fc	0.08001897
17	0x3b8f34b0	0.0043702945
18	0xbd0a02e3	-0.03369416
19	0xbda34052	-0.079712525
20	0xbd4c8b69	-0.04993764
21	0xbd8ff151	-0.07028449
22	0xbc522b4c	-0.012827706
23	0xbc7de826	-0.015497243
24	0xbd071764	-0.03298129
25	0xbcc96c65	-0.02458782
26	0x3d4e8233	0.050417136
27	0xbcd253d7	-0.025674744
28	0x3d253dc0	0.040342093
29	0xbd1ee973	-0.038796853
30	0xbd4ffc30	-0.050777614
31	0x3c4a9a89	0.012365946
32	0xbd872efb	-0.06600758
33	0xbcecda31	-0.028912636
34	0xbd7a32bf	-0.06108355
35	0xbdbf8676	-0.09351818
36	0x3b0d61a8	0.00215731
37	0x3d70e08f	0.058807906
38	0xbce8747b	-0.028375855
39	0xbd2ca801	-0.04215241
40	0xbc693e7c	-0.014236089
41	0xbc8e2182	-0.017349962
42	0xbd983402	-0.07431795
43	0xbcd0c426	-0.025484156
44	0x3d1e45ef	0.038640913
45	0xbd195a43	-0.037439596
46	0xbc8621bc	-0.016373508
47	0x3bc5f255	0.006040851
48	0x3d8770cb	0.066133104
49	0x3da91a0f	0.082569234
50	0xbd88fad7	-0.06688469
51	0xbddf7e34	-0.10912743
52	0xbd9b6759	-0.075880714
53	0xbda5d817	-0.080978565
54	0xbc1bba1b	-0.00950482
55	0xbcada4f2	-0.021196816
56	0xbb29f10b	-0.0025931026
57	0x3d63d33a	0.055621363
58	0xbd9dda88	-0.07707697
59	0xbd4e5f5d	-0.050383914
60	0x3d8eb2da	0.06967707
61	0x3bec274e	0.007206834
62	0xbccefc6c	-0.025266849
63	0xbd3b700f	-0.045761164
64	0xbd99ad5a	-0.07503767
65	0x3c4bf055	0.012447436
66	0xbcd013ae	-0.025400009
67	0xbd857759	-0.065169044
68	0xbb9d6ef6	-0.0048044873
69	0x3d208964	0.039193526
70	0x3d639b9c	0.055568323
71	0xbdc32363	-0.09528234
72	0xbb68ddd9	-0.0035532622
73	0x3d1a531c	0.037676916
74	0x3cb11af5	0.0216193
75	0x3cadd566	0.02121992
76	0x3e05f00d	0.13079853
77	0xbcca30f5	-0.024681548
78	0xbde5d476	-0.11222164
79	0xbdd4e25b	-0.103947364
80	0xbda9599a	-0.08269043
81	0x3cad53d6	0.02115814
82	0x3d8966eb	0.06709083
83	0xbc8d0520	-0.017214358
84	0x3c9b8da0	0.01898843
85	0x3d7ee923	0.062234055
86	0x3ccd3083	0.025047546
87	0xbd5354ed	-0.051594663
88	0x3da80c87	0.082055144
89	0x3ca8771e	0.020564612
90	0xbca7f2db	-0.020501545
91	0x3d496af8	0.04917428
92	0xbca9c6f3	-0.02072475
93	0x3d1e2472	0.038608976
94	0x3dd384a1	0.10328031
95	0xba7cb609	-0.00096401625
96	0xbcab6f5d	-0.020927126
97	0xbd3a1146	-0.04542663
98	0x3d8210dd	0.06350873
99	0xbce785a7	-0.028261973
100	0x3d36da35	0.044641692
101	0x3c81ef8e	0.015861299
102	0x3c842eaf	0.016135542
103	0xbdb38dd1	-0.08767284
104	0x3d1816c0	0.03713107
105	0xbd30cadb	-0.043162208
106	0x3d8a77ab	0.06761106
107	0xbdac9ff2	-0.08428945
108	0xbc313094	-0.010814805
109	0x3d91f7e5	0.0712736
110	0xbdc64446	-0.09680991
111	0xba966476	-0.0011474031
112	0xbe0c1425	-0.1367956
113	0x3c6d5946	0.0144866165
114	0xbd1166fb	-0.0354986
115	0x3e18b872	0.1491411
116	0xbc3a5c40	-0.011374533
117	0x3cc3381e	0.02383047
118	0xbe095a05	-0.13413246
119	0xbd068f5b	-0.03285156
120	0xbe24d202	-0.16095737
121	0x3d127579	0.035756562
122	0x3d501283	0.050798904
123	0x3d046edf	0.032332297
124	0xbcd3bd6a	-0.025847156
125	0xbc97cf69	-0.018531518
126	0xbc9e6e54	-0.019339718
127	0xbd8dca69	-0.06923372
128	0x3ae2e0fb	0.0017309481
129	0x3d8a4054	0.06750551
130	0x39b9b0ae	0.00035417586
131	0xbdf564f2	-0.119821444
132	0x3d4acf42	0.049514063
133	0x3d176c9b	0.03696881
134	0xbc9b7261	-0.018975439
135	0x3cefcbc2	0.029271964
136	0x3cad8148	0.02117981
137	0xbbd9f666	-0.0066516874
138	0x3c8172ee	0.015801873
139	0x3d49d3c5	0.049274225
140	0x3d02e2ba	0.031954505
141	0xbd14e2bd	-0.036349047
142	0x3c53ca68	0.012926675
143	0xbddd4042	-0.10803272
144	0xbc44ae2f	-0.012004419
145	0x3d78d099	0.06074581
146	0x3d9d33c4	0.07675889
147	0x3defe156	0.11712901
148	0x3d61d69d	0.05513631
149	0xbd14d47d	-0.036335457
150	0xba4b1140	-0.0007746406
151	0x3cdd1875	0.026989201
152	0x3da41252	0.08011307
153	0x3d7931d6	0.060838543
154	0x3d0da749	0.034583364
155	0x3c4da655	0.012551864
156	0x3c8edf1c	0.017440371
157	0xbcf0dec9	-0.029403107
158	0x3c9b19cb	0.018933197
159	0x3d4984e3	0.049198996
160	0xbd0ce275	-0.034395654
161	0xbe0e863b	-0.13918392
162	0xba08d611	-0.00052198867
163	0xbd93adb1	-0.072108634
164	0x3ceb73de	0.028741773
165	0xbe0d7d8f	-0.13817428
166	0x3d5e870c	0.05432801
167	0xbca61741	-0.02027476
168	0xbe1fc3f2	-0.15602091
169	0xbd3be86a	-0.045875944
170	0x3daf985c	0.08573982
171	0xbd656687	-0.05600598
172	0x3dc00e3b	0.09377714
173	0x3d86419d	0.065554835
174	0xbdb731c2	-0.089450374
175	0xbc36687c	-0.011133309
176	0xbd619e49	-0.055082593
177	0x3db3373c	0.087507695
178	0xbd5d7cb2	-0.054073997
179	0x3d0d4909	0.03449348
180	0x3d20971c	0.03920661
181	0x3c3629a5	0.011118327
182	0x3df9a54e	0.121897325
183	0xbd897eab	-0.06713613
184	0xbd0e182d	-0.034691025
185	0x3d239e45	0.03994586
186	0xbd8a3122	-0.067476526
187	0xbc31375f	-0.010816424
188	0xbce45658	-0.027873203
189	0x3cec49ed	0.028843844
190	0x3dc854a3	0.09781768
191	0x3d0d4074	0.034485295
192	0x3d35b2ed	0.04436009
193	0x3ccc3ffb	0.024932852
194	0x3d3eb3c2	0.04655815
195	0x3d146b06	0.036234878
196	0x3cf81e2f	0.03028783
197	0x3d318c7c	0.043346867
198	0x3d978b26	0.07399587
199	0x3bb5bbe6	0.005546081
200	0xbd07e4c1	-0.03317714
201	0xbda0f7e6	-0.07859783
202	0x3d319ee2	0.043364413
203	0x3b9a292a	0.004704614
204	0xbc1eeff8	-0.009700768
205	0x3d945426	0.072426125
206	0x3d4bc3bf	0.049747225
207	0x3d9772b7	0.07394927
208	0xbc861c32	-0.016370866
209	0x3d8b76d9	0.06809778
210	0xbd33fbe1	-0.043941382
211	0x3c90033c	0.017579667
212	0xbcb0ce44	-0.02158273
213	0x3c317dbd	0.010833201
214	0xbd1e4d7b	-0.03864811
215	0x3ac9106f	0.0015339981
216	0xbd9dfdba	-0.0771441
217	0xbd633c48	-0.05547741
218	0xbd99a91c	-0.07502958
219	0x3c27d6e3	0.010244104
220	0xbd211f57	-0.03933653
221	0xbd41e0ab	-0.0473334
222	0x3c125f64	0.008933876
223	0x3cc06dee	0.023489919
224	0x3d17ed99	0.037091825
225	0xbd9a4f93	-0.07534709
226	0xbd5daaad	-0.054117847
227	0x3d0c30b2	0.034226127
228	0xbcc4461a	-0.023959208
229	0x3c76dd9d	0.015067485
230	0xbcb8f325	-0.022576878
231	0x3d5e85d6	0.054326855
232	0x3c279c4f	0.010230138
233	0x3d63a0f5	0.055573422
234	0x3e0d155f	0.13777684
235	0x3c8941c8	0.016755
236	0xbd6a672b	-0.057227295
237	0x3e135202	0.14386752
238	0x3cdfdfa9	0.02732833
239	0x3d74d7b9	0.05977604
240	0xbd82dcac	-0.06389746
241	0xba158ab4	-0.00057045673
242	0x3cbd8776	0.023135882
243	0x3c22d20b	0.009937773
244	0xbd9924c8	-0.074777186
245	0x3d2f0e40	0.0427382
246	0xbd55182a	-0.052024998
247	0xbda72084	-0.08160499
248	0xbbc4c03d	-0.006004362
249	0xbd93b724	-0.07212666
250	0x3cb6d72f	0.022319404
251	0x3ddab658	0.106793106
252	0xbcdfaa89	-0.027302997
253	0xbde597d0	-0.112105966
254	0xbdcf9046	-0.1013494
255	0xbcfa51c8	-0.030556574

encoder.4.bias f4 [64]
0	0xbd2a9f4a	-0.041655816
1	0x3d897515	0.06711785
2	0x3d350e6d	0.04420321
3	0xbd574b7a	-0.052562214
4	0xbd90bb6d	-0.07066999
5	0x3cd4bb9d	0.025968367
6	0xbd6cc9f9	-0.057809804
7	0x3d8c5ed6	0.06854026
8	0x3a763481	0.0009391979
9	0x3d9c17ab	0.07621702
10	0x3caed797	0.021343036
11	0xbd015750	-0.03157741
12	0xbcf4e709	-0.029895322
13	0x39e5dfd6	0.00043845054
14	0xbccddef5	-0.025130728
15	0xbcbcc2a0	-0.023042023
16	0x3d2c05a1	0.041997556
17	0xbcbc2017	-0.02296452
18	0xbd5f5e98	-0.05453357
19	0xbd1f3606	-0.03886988
20	0xbd8768a6	-0.06611757
21	0x3bf6a3ab	0.007526835
22	0x3d4ef392	0.050525256
23	0x3cbda1e1	0.023148479
24	0x3b02d842	0.0019965325
25	0x3db3a2dd	0.08771298
26	0x3d79b09f	0.060959455
27	0x3d531fd9	0.051544044
28	0xbd0c33d4	-0.034229115
29	0xbd6ed9f7	-0.058313336
30	0xbdab1274	-0.08353129
31	0xbd484f25	-0.048903603
32	0x3d1a177e	0.03762006
33	0x3da7d6cf	0.08195268
34	0x3d2bb06b	0.041916292
35	0x3d8684ee	0.06568323
36	0xbd51e0d1	-0.051239792
37	0x3d839141	0.06424189
38	0xbc19f912	-0.009397762
39	0x3da825bb	0.082103215
40	0xbd0f338c	-0.03496127
41	0xbd4a40e9	-0.04937831
42	0x3c1519a9	0.009100356
43	0x3daf55c4	0.0856128
44	0xbd94a76f	-0.07258498
45	0x3d6288ee	0.055306368
46	0xbd04ea9c	-0.032450303
47	0xbcbc9105	-0.02301837
48	0x3da39043	0.079865
49	0xbc000982	-0.007814767
50	0xbd7e01ca	-0.062013425
51	0xbdad0fbe	-0.08450268
52	0x3c4e7191	0.0126003185
53	0xbc24ac1b	-0.010050799
54	0xbcd1a2a1	-0.025590243
55	0x3c51ecd0	0.012812808
56	0xbd97d616	-0.074138805
57	0xbda46d22	-0.08028628
58	0xbd5edec9	-0.054411683
59	0xbcf32ffa	-0.029685963
60	0x3ca76acf	0.020436672
61	0x3cf5fa46	0.030026566
62	0x3d804aa0	0.062642336
63	0xbcfd9466	-0.030954551

encoder.5.weight f4 [64]
0	0x3f92d541	1.147133
1	0x3f891aee	1.0711343
2	0x3f87cbe5	1.0609099
3	0x3f936406	1.15149
4	0x3f868789	1.0510112
5	0x3f8b043a	1.0860665
6	0x3f8fa8f2	1.1223433
7	0x3f9058e9	1.1277133
8	0x3f8faa18	1.1223783
9	0x3f923c35	1.1424624
10	0x3f8f2053	1.118174
11	0x3f8a2626	1.0792892
12	0x3f8b9af1	1.0906659
13	0x3f8fc663	1.1232418
14	0x3f8dca2b	1.1077322
15	0x3f8a6704	1.0812688
16	0x3f8c99fb	1.0984491
17	0x3f8e52b3	1.1118988
18	0x3f96e86b	1.1789678
19	0x3f8f25d8	1.1183424
20	0x3f8e7bfc	1.1131587
21	0x3f8c5eec	1.0966468
22	0x3f8d06fa	1.1017754
23	0x3f8dae6a	1.1068852
24	0x3f88fc71	1.0702039
25	0x3f874360	1.0567436
26	0x3f8d2496	1.102679
27	0x3f9188ec	1.136991
28	0x3f93986b	1.1530889
29	0x3f922689	1.141801
30	0x3f9158cd	1.1355225
31	0x3f8d9886	1.1062171
32	0x3f88c025	1.0683638
33	0x3f8c8f6a	1.0981266
34	0x3f917143	1.136269
35	0x3f875cd5	1.0575205
36	0x3f891614	1.0709863
37	0x3f8d0061	1.1015741
38	0x3f8cd2fe	1.100189
39	0x3f8ae692	1.0851614
40	0x3f95db55	1.170756
41	0x3f8bf066	1.0932739
42	0x3f8c317d	1.0952603
43	0x3f8abb29	1.0838367
44	0x3f921eff	1.1415709
45	0x3f98d714	1.1940637
46	0x3f948ed9	1.1606094
47	0x3f888d34	1.0668092
48	0x3f9001d8	1.1250563
49	0x3f904ebd	1.1274029
50	0x3f8cb4dc	1.0992694
51	0x3f8ebd5d	1.1151539
52	0x3f8c8f0e	1.0981157
53	0x3f8490cf	1.0356692
54	0x3f897974	1.074019
55	0x3f8c2315	1.0948206
56	0x3f8eb746	1.1149681
57	0x3f8c6ea2	1.0971262
58	0x3f91507d	1.1352688
59	0x3f8ef7d6	1.1169384
60	0x3f89d69a	1.0768616
61	0x3f9130e4	1.1343045
62	0x3f911c19	1.13367
63	0x3f8d29e1	1.1028405

encoder.5.bias f4 [64]
0	0x3d5409ae	0.051767044
1	0x3d1421a0	0.03616488
2	0x3da58814	0.080825955
3	0x3d8b775c	0.06809875
4	0x3d8417c8	0.064498484
5	0x3daae1d5	0.08343855
6	0x3dc772ec	0.097387165
7	0x3de78ba1	0.11305929
8	0x3d598488	0.053104907
9	0x3dae1912	0.085008755
10	0x3d5631ca	0.052293576
11	0x3da250c1	0.07925559
12	0x3dd3a5e1	0.10334373
13	0x3db5ab79	0.088705964
14	0x3cd0d4e7	0.025492145
15	0x3d9df457	0.0771262
16	0x3dc9b06f	0.09848105
17	0x3dce8c5b	0.100853644
18	0x3db32338	0.08746952
19	0x3da53389	0.0806647
20	0x3cba75b8	0.02276121
21	0x3dcacd46	0.09902434
22	0x3c927c79	0.017881619
23	0x3da23311	0.079198964
24	0x3bf02235	0.0073282965
25	0x3cb28139	0.021790134
26	0x3ce54b1f	0.027989922
27	0x3dcf58c0	0.101243496
28	0x3dac306f	0.084076755
29	0x3d65d4f0	0.056111276
30	0x3d1eabe2	0.03873814
31	0x3d83bca4	0.06432465
32	0x3d29a806	0.041420005
33	0x3c289f0e	0.010291828
34	0x3daea678	0.08527845
35	0x3d8cbe77	0.06872266
36	0x3e196332	0.14979246
37	0x3dbeada2	0.093104616
38	0x3d8af1dc	0.06784412
39	0x3d75b55f	0.059987422
40	0x3de9b821	0.11412073
41	0x3d9de457	0.07709568
42	0x3caa289e	0.02077132
43	0x3d54b141	0.051926855
44	0x3d86b6d8	0.065778434
45	0x3de097fa	0.10966487
46	0x3d4d19f7	0.05007359
47	0x3d8f8dab	0.07009443
48	0x3d802f5b	0.06259032
49	0x3dbe3ff0	0.09289539
50	0x3dbde980	0.09273052
51	0x3d94d4dc	0.07267162
52	0x3dc58163	0.09643819
53	0x3d068692	0.03284318
54	0x3db08000	0.08618164
55	0x3e0817f6	0.1329039
56	0x3dc8c49a	0.09803124
57	0xbcfe04c9	-0.031008141
58	0x3d732f38	0.059371203
59	0x3d2ad776	0.041709386
60	0x3d62d649	0.05538014
61	0x3db6efaf	0.08932435
62	0x3db03730	0.08604276
63	0x3db77152	0.08957161

encoder.5.running_mean f4 [64]
0	0xbf1f17bf	-0.6214561
1	0x3e5dcd97	0.21660458
2	0xbe54b565	-0.20772322
3	0xbe79ac63	-0.24382167
4	0xbe0728c7	-0.13199149
5	0xbd99f8f7	-0.075181894
6	0x3e1723e5	0.14759786
7	0x3d179a4b	0.03701238
8	0xbea6852f	-0.32523486
9	0xbd9aa38f	-0.075507276
10	0x3e85bc5e	0.26120275
11	0xbeada13b	-0.33912072
12	0x3e12d718	0.14339864
13	0xbed8457d	-0.42240515
14	0xbea5a09a	-0.32349092
15	0x3d3587fe	0.044319145
16	0x3e0a7e76	0.13524804
17	0xbda56962	-0.08076741
18	0x3d5f252e	0.054478817
19	0x3d79db31	0.061000053
20	0x3e9e3da0	0.3090639
21	0x3dd8e08e	0.105897054
22	0x3d694a02	0.056955345
23	0xbc829d44	-0.01594413
24	0xbd3cee47	-0.046125676
25	0xbb3cb0c0	-0.0028791875
26	0xbeb486a3	-0.3525897
27	0xbd36e8d9	-0.044655655
28	0x3ecafc78	0.39645743
29	0xbe5d54d4	-0.2161439
30	0x3c6479f3	0.013945091
31	0xbeac4b86	-0.3365137
32	0xbe066dcb	-0.1312782
33	0x3eb686a4	0.35649598
34	0x3e1e1b27	0.15440045
35	0xbd87862c	-0.06617388
36	0x3ef72236	0.48268288
37	0xbe4d9524	-0.20076424
38	0x3f3c7d31	0.73628527
39	0x3e4f03a6	0.20216236
40	0xbf1c5e9a	-0.6108185
41	0x3e9764ed	0.29569188
42	0xbd2b1e7a	-0.04177711
43	0x3e20b7a8	0.1569506
44	0x3d6622f0	0.056185663
45	0xbeb39791	-0.35076573
46	0xbedac59c	-0.4272889
47	0xbcda08af	-0.026615469
48	0xbed76e59	-0.42076376
49	0xbed06249	-0.40699986
50	0x3b95fce7	0.0045772674
51	0xbf39aaff	-0.72526544
52	0xbee521b6	-0.44752282
53	0x3b8a908d	0.0042286576
54	0x3e89b1d7	0.26893494
55	0x3ce30ddc	0.02771657
56	0x3d2ff06a	0.042953886
57	0xbdf729bb	-0.12068506
58	0x3eb4c6d4	0.35307944
59	0xbe1a073c	-0.15041822
60	0x3e106d4a	0.1410419
61	0x3ef61333	0.48061523
62	0x3eba6674	0.3640629
63	0xbec1cfe5	-0.37853923

encoder.5.running_var f4 [64]
0	0x3f1897f6	0.59606874
1	0x3f24806e	0.6425847
2	0x3f19b03a	0.60034525
3	0x3f2664f4	0.6499779
4	0x3ed7252e	0.42020553
5	0x3f0c9255	0.54910785
6	0x3ef2afba	0.47399694
7	0x3f8d6923	1.104771
8	0x3f241130	0.64088726
9	0x3f167b4e	0.587819
10	0x3ef181a5	0.47169223
11	0x3f21b8fe	0.631729
12	0x3f041222	0.5159017
13	0x3f468abd	0.7755545
14	0x3f3d1487	0.7385945
15	0x3f352d86	0.7077259
16	0x3f3920f4	0.7231591
17	0x3f19bd0d	0.60054094
18	0x3ecff012	0.40612847
19	0x3f49a657	0.7876944
20	0x3f105582	0.56380475
21	0x3f117765	0.56822807
22	0x3f148c12	0.5802623
23	0x3f1ee5ad	0.6206921
24	0x3f2455c7	0.64193386
25	0x3f48dbaa	0.7846018
26	0x3edc5450	0.43033075
27	0x3f33d8bd	0.7025259
28	0x3ee5c2af	0.44875094
29	0x3f2d42f5	0.67680293
30	0x3f09c720	0.53819466
31	0x3ef7cff5	0.48400846
32	0x3ed92aa5	0.42415348
33	0x3f00add0	0.50265217
34	0x3f65984e	0.89685524
35	0x3ec5171e	0.384942
36	0x3f000f00	0.5002289
37	0x3f18a08a	0.59619963
38	0x3eff0cc2	0.4981442
39	0x3f113e2b	0.56735486
40	0x3f53846d	0.8262394
41	0x3f191ea0	0.59812355
42	0x3f0d9339	0.5530277
43	0x3f2102bc	0.628948
44	0x3f1e2e4b	0.6178939
45	0x3f1bb259	0.6081901
46	0x3f185eca	0.59519637
47	0x3f2429fa	0.6412655
48	0x3f1d046e	0.61334884
49	0x3f647875	0.892463
50	0x3f26e8d9	0.6519905
51	0x3f1abb96	0.60442483
52	0x3f52cafa	0.8234097
53	0x3f1214b3	0.57062835
54	0x3ee0342d	0.43789807
55	0x3f1630da	0.5866829
56	0x3f565a78	0.83731794
57	0x3edfbb4e	0.4369759
58	0x3f08233e	0.53178775
59	0x3f6df57f	0.9295272
60	0x3eda4129	0.42627838
61	0x3f11b9ce	0.5692414
62	0x3f3964c9	0.7241941
63	0x3f212ef1	0.6296225

decoder.0.weight f4 [128, 64]
0	0x3d430d66	0.0476202
1	0x3e0ce98f	0.1376097
2	0xbd440242	-0.047853716
3	0x3d66c000	0.05633545
4	0xbd1b6ae7	-0.037943747
5	0xbd19f763	-0.037589442
6	0x3dde7f3b	0.10864111
7	0xbd5d20ca	-0.05398635
8	0x3d7b05ce	0.061284833
9	0xbd731094	-0.059341982
10	0xbe65c5cf	-0.22438739
11	0xbe4b40b8	-0.19848907
12	0xbc712769	-0.014718869
13	0x3e245c5d	0.16050859
14	0xbd3cf8c6	-0.046135686
15	0xbcbf8101	-0.023376944
16	0x3dd15282	0.10220815
17	0x3ce7cab6	0.028294902
18	0x3da1f963	0.07908895
19	0x3cae497e	0.021275278
20	0xbc65456f	-0.013993605
21	0xbc53618d	-0.012901676
22	0xbe0da524	-0.13832527
23	0x3d34f2c6	0.04417684
24	0xbdefb3a5	-0.11704186
25	0xbe7c06b9	-0.2461194
26	0x3e2db3c5	0.16963108
27	0x3cf985f8	0.03045939
28	0xbc875df9	-0.016524302
29	0xbc8b70cd	-0.017021561
30	0x3e2d3b81	0.1691723
31	0x3bb29472	0.005449825
32	0x3c4d515a	0.012531603
33	0xbe11ffc8	-0.14257729
34	0xbdaf26a3	-0.08552291
35	0x3c5df377	0.013546816
36	0x3d964960	0.07338214
37	0xbe0452dc	-0.12922233
38	0x3da40f0b	0.08010682
39	0x3d1c7bd3	0.038204025
40	0x3c61b0c6	0.013775056
41	0xbc68546c	-0.014180284
42	0x3e102f93	0.14080648
43	0x3deb5ff7	0.11492913
44	0xbcd49a53	-0.025952494
45	0x3df72eac	0.12069449
46	0x3cda3043	0.026634341
47	0xbd98961a	-0.074505046
48	0x3d434bdd	0.04767977
49	0x3e024caf	0.12724565
50	0xbdf79e03	-0.12090685
51	0xbcc8d524	-0.024515696
52	0xbca4dd3b	-0.020125022
53	0xbd51f4cb	-0.051258843
54	0xbe105a6e	-0.14096996
55	0x3c8a5581	0.016886475
56	0x3d77aca5	0.06046738
57	0xbe51db66	-0.2049385
58	0x3d321be9	0.04348365
59	0x3e06fbdf	0.13182019
60	0x3d77091b	0.060311418
61	0x3dde3ead	0.10851798
62	0xbe2e5d6c	-0.17027825
63	0x3d401776	0.046897374
64	0xbdc3552f	-0.09537732
65	0xbd0ce67b	-0.03439949
66	0x3dd75a1e	0.10515235
67	0xbd564b53	-0.05231793
68	0x3c892adf	0.016744075
69	0xbdaf179f	-0.08549427
70	0xbd1b08b7	-0.037850108
71	0xbe939b9f	-0.28829667
72	0xbdcd40c6	-0.1002212
73	0xbe21466d	-0.15749522
74	0x3e1997af	0.14999269
75	0xbd80b245	-0.06284002
76	0x3daad0be	0.08340596
77	0xbdd92a57	-0.10603779
78	0x3d1a331d	0.0376464
79	0xbb045777	-0.0020193735
80	0xbddf91d9	-0.1091649
81	0xbdbd55e2	-0.092448965
82	0xbcbfa2ba	-0.023393024
83	0x3e239e6d	0.15978403
84	0x3bce57e8	0.0062971003
85	0xbe4e7461	-0.20161583
86	0x3e244efb	0.16045754
87	0x3c9e15e1	0.019297542
88	0x3dc53056	0.0962836
89	0xbd2330ff	-0.03984165
90	0xbd806308	-0.06268889
91	0xbe597b9d	-0.21238561
92	0x3dcb284f	0.09919798
93	0xbc3f67eb	-0.011682491
94	0xbde49d8e	-0.11162864
95	0xbd87aba5	-0.066245355
96	0xbe4c1f59	-0.19933833
97	0x3d2122a3	0.039339673
98	0xbd98f83c	-0.07469222
99	0x3c32a70a	0.010904083
100	0x3d362c73	0.044475984
101	0x3dbf00b9	0.0932631
102	0xbd34b484	-0.044117466
103	0x3d856dad	0.065150596
104	0x3d07bbff	0.03313827
105	0x3d5686d0	0.05237466
106	0x3e15ef54	0.14642078
107	0x3dfe5e5a	0.1242034
108	0x3dd50d73	0.10402956
109	0xbe093bca	-0.13401714
110	0xb9e2f180	-0.0004328601
111	0xbe27d502	-0.1638985
112	0x3d909154	0.07058969
113	0xbc68dd18	-0.014212869
114	0xbdce4f1a	-0.10073681
115	0x3c907047	0.017631663
116	0x3c160626	0.009156739
117	0xbdadd1e7	-0.08487301
118	0x3d76e0d0	0.06027299
119	0x3e156b42	0.14591697
120	0x3d32f5fb	0.043691617
121	0x3d5f4f07	0.054518726
122	0xbd5ad991	-0.053430144
123	0xbd1a7f3c	-0.037718996
124	0x3e09fab8	0.13474548
125	0xbdc809be	-0.09767483
126	0x3d9b538c	0.07584295
127	0xbce8415b	-0.028351476
128	0xbe001897	-0.1250938
129	0x3d21f71c	0.039542302
130	0x3ae59072	0.0017514362
131	0xbdac2758	-0.08405942
132	0xbd62af40	-0.055342913
133	0xbe1c65df	-0.15273236
134	0xbd871047	-0.065949015
135	0x3dd30282	0.10303213
136	0xbca8dfeb	-0.020614585
137	0xbd60c8c1	-0.054878954
138	0x3c97e7d5	0.018543163
139	0xbc44f05e	-0.012020199
140	0x3cfdef0c	0.030997775
141	0x3d58031c	0.05273734
142	0x3c12d5c1	0.008962096
143	0xbccd29c7	-0.025044335
144	0xbc849625	-0.016184876
145	0xbd0136c5	-0.031546373
146	0xbdc31b15	-0.0952665
147	0x3d9408e7	0.072282605
148	0x3da2ce55	0.07949511
149	0x3e4bd66d	0.19906016
150	0xbe1ecaf2	-0.15507105
151	0x3ca0070c	0.01953461
152	0xbd65dbf6	-0.056117974
153	0x3ca1fcf5	0.01977394
154	0xbd18908b	-0.037247222
155	0xbe1d09d1	-0.15335776
156	0xbe496c27	-0.19670163
157	0x3c6f0e4b	0.01459081
158	0xbe24ca50	-0.16092801
159	0xbd517164	-0.05113353
160	0x3cb8a81c	0.022541098
161	0x3df96501	0.12177468
162	0x3c576d97	0.013148687
163	0xbde6c9da	-0.11268969
164	0x3d8b57b5	0.06803838
165	0xbe3b6820	-0.1830144
166	0xbd2b5900	-0.041832924
167	0xbdb157af	-0.086593024
168	0x3b72d193	0.0037051185
169	0xbd8cfe15	-0.068844
170	0x3c300b00	0.01074481
171	0x3e228d62	0.15874246
172	0xbe30f717	-0.17281757
173	0xbda36586	-0.079783484
174	0xbcf7dc45	-0.0302564
175	0xbdc03234	-0.093845755
176	0xbcaf4e3e	-0.021399613
177	0xbcb2de13	-0.021834409
178	0x3d8ac69e	0.067761645
179	0x3de2ce31	0.11074484
180	0x3d7a4ac9	0.061106477
181	0x3e2a42ee	0.16627094
182	0xbd6b6a60	-0.057474494
183	0x3e06d545	0.13167293
184	0xbdce9a32	-0.10088004
185	0xbdbe0f92	-0.092803136
186	0x3e1e5185	0.15460785
187	0xbca31f60	-0.019912422
188	0xbe51148c	-0.20417994
189	0xbe881bf7	-0.26583835
190	0xbd6e5c14	-0.05819328
191	0xbdaf9b01	-0.085744865
192	0x3de17b60	0.1100986
193	0xbd72c5f4	-0.059270814
194	0x3cb79996	0.022412103
195	0xbcea33ec	-0.028589211
196	0xbd22c971	-0.03974289
197	0x3d4e66d8	0.05039105
198	0xbdbe425f	-0.09290003
199	0xbe48591d	-0.19565244
200	0xbd986ba9	-0.074424095
201	0xbe10f43c	-0.14155668
202	0x3dc47698	0.095929325
203	0x3dc7a143	0.09747555
204	0xbdd962f3	-0.10614576
205	0x3c675169	0.014118531
206	0x3e1e4663	0.15456538
207	0x3d8e8516	0.06958978
208	0xbd3c3a91	-0.04595429
209	0xbd8f6465	-0.070015706
210	0x3d8f9bfa	0.07012172
211	0xbd64af6f	-0.05583137
212	0xbd18d56a	-0.037312903
213	0xbdc89768	-0.097945035
214	0x3d5d1930	0.0539791
215	0x3bc54b9f	0.0060209776
216	0x3dbd6335	0.09247438
217	0x3dbb551f	0.09147095
218	0xbdb4a170	-0.08819854
219	0xbe1fa266	-0.15589294
220	0x3dc1dad9	0.0946557
221	0xbd76bee4	-0.06024064
222	0x3c90c093	0.017669952
223	0x3dbe5655	0.0929381
224	0xbdb94ad7	-0.09047478
225	0x3d443166	0.047898673
226	0xbde8bb55	-0.11363856
227	0x3d9dd55b	0.0770671
228	0xbdf998e7	-0.12187367
229	0xbd8f9d72	-0.07012452
230	0x3e035187	0.12824069
231	0x3da6977c	0.08134362
232	0xbe0315a1	-0.1280122
233	0x3af70904	0.0018847291
234	0x3d624abe	0.05524706
235	0x3de0efd6	0.10983245
236	0xbd846ae4	-0.064657
237	0x3ddeb1dc	0.10873768
238	0x3dc7734b	0.09738787
239	0xbe4884ec	-0.19581956
240	0x3df2840a	0.11841591
241	0x3e12104c	0.1426403
242	0x3d840075	0.064454
243	0x3d89f379	0.06735892
244	0xbde334ff	-0.110940926
245	0x3dcf45f0	0.101207614
246	0x3db6c427	0.08924132
247	0x3de6c2d6	0.11267631
248	0xbe5346d6	-0.2063249
249	0x3df24cfa	0.11831088
250	0xbdc333f6	-0.09531395
251	0xbdfd21cc	-0.12359962
252	0xbdb02562	-0.0860088
253	0xbd745ddd	-0.059659828
254	0x3e1c7b3f	0.1528139
255	0x3d761442	0.060077913

decoder.0.bias f4 [128]
0	0x3e4b4b31	0.19852902
1	0xbe5c2afc	-0.21500772
2	0xbe0e17e0	-0.13876295
3	0xbdbb9365	-0.09158973
4	0xbe2e09b4	-0.16995889
5	0x3cd009bc	0.025395267
6	0xbde1288d	-0.109940626
7	0x3e2f4474	0.17115957
8	0x3ce3eb15	0.027822057
9	0x3e37fcfa	0.17967597
10	0x3c858456	0.016298454
11	0xbd769fc9	-0.060210977
12	0xbe2eb848	-0.17062485
13	0x3ce6c1f9	0.028168665
14	0x3dc7251c	0.09723875
15	0x3e3a8c4b	0.1821758
16	0xbd849452	-0.06473602
17	0xba877b1f	-0.0010336376
18	0xbd59594c	-0.053063676
19	0x3bf0b929	0.0073462916
20	0x3e0d1898	0.13778913
21	0x3e1a3be5	0.1506191
22	0xbd8bad2d	-0.0682014
23	0xbd370767	-0.044684794
24	0xba3ebeff	-0.00072763854
25	0xbcdda8dc	-0.027058057
26	0xbc446c38	-0.011988692
27	0xbe42676d	-0.18984766
28	0x3dc92e35	0.098232664
29	0x3e2978f3	0.16550045
30	0x3e1eadf7	0.1549605
31	0x3d6caabb	0.05778001
32	0xbc1275cd	-0.008939219
33	0xbda1c625	-0.07899121
34	0x3de085fc	0.109630555
35	0xbcb38267	-0.021912767
36	0x3cf918d6	0.03040735
37	0xbc29b941	-0.010359109
38	0x3d833b4d	0.06407795
39	0x3de1210a	0.1099263
40	0x3c9ce489	0.019151943
41	0x3e3e55b0	0.18587375
42	0x3d49fd8f	0.049314078
43	0x3e6e8025	0.23291071
44	0x3e4e54a9	0.20149483
45	0xbcc63329	-0.024194317
46	0x3e3cc737	0.1843537
47	0xbdaddf05	-0.08489803
48	0x3e1baf9f	0.15203713
49	0x3d91f8e0	0.07127547
50	0xbd71027e	-0.058840267
51	0x3d386c7c	0.045025334
52	0x3e8670a7	0.26257822
53	0xbe146946	-0.14493284
54	0xbd9c9ebb	-0.07647463
55	0xbd2d0ce3	-0.042248618
56	0x3c1b017c	0.009460803
57	0xbdc5eeb6	-0.09664671
58	0x3d5940c5	0.053040285
59	0xbcac2c9c	-0.021017365
60	0x3dac423c	0.08411071
61	0x3e1536a2	0.14571622
62	0xbbfcdc10	-0.007716663
63	0xbd28223b	-0.04104827
64	0x3d506731	0.05087966
65	0x3e14c96e	0.14529964
66	0xbda42eac	-0.080167145
67	0xbdb66a08	-0.089069426
68	0x3e04bafc	0.12961954
69	0xbd57add7	-0.05265602
70	0x3dc65fe5	0.09686259
71	0x3e1bd205	0.15216835
72	0xbd2e1a07	-0.04250529
73	0x3dd4662f	0.103710525
74	0xbe0cf918	-0.13766897
75	0xbe1460cd	-0.14490052
76	0x3d1919b5	0.03737803
77	0x3daa68f1	0.08320797
78	0x3dc8880e	0.09791575
79	0x3d2d4e6d	0.04231112
80	0xbdc9663d	-0.098339535
81	0x3cc08c8f	0.023504524
82	0xbe24925a	-0.16071454
83	0x3d992250	0.07477248
84	0xbd4ad32e	-0.049517803
85	0xbca70cce	-0.020391848
86	0x3e7d4949	0.24734987
87	0x3def1c21	0.11675287
88	0x3e15da42	0.1463404
89	0x3d81d7dc	0.0634
90	0x3e458db2	0.19292334
91	0x3d20abea	0.03922645
92	0xbdfce0e8	-0.12347585
93	0xbe4f44da	-0.20241109
94	0x3e3115d7	0.17293487
95	0xbdec98df	-0.11552595
96	0x3e81aab7	0.25325558
97	0x3e4b19e8	0.19834101
98	0x3e2a6b4a	0.1664249
99	0x3d1379ae	0.036004715
100	0x3d915842	0.07096912
101	0x3bec1458	0.0072045736
102	0x3d5db0dd	0.054123748
103	0x3e0a8741	0.13528158
104	0xbce35fbc	-0.02775561
105	0x3de23c14	0.11046615
106	0x3a884685	0.0010396993
107	0xbd5ae0fe	-0.053437226
108	0x3e8ebcd0	0.27878428
109	0x3d67b898	0.056572527
110	0x3db5050d	0.08838854
111	0xbe18f4b2	-0.14937094
112	0x3e1d97ec	0.15389985
113	0x3dee0563	0.11622121
114	0x3e01048d	0.12599392
115	0x3bd8d1e1	0.0066168164
116	0xb98275cc	-0.00024883298
117	0x3e12df27	0.14342938
118	0x3d2a5765	0.041587252
119	0xbdab8478	-0.08374876
120	0x3d5e5aca	0.054285802
121	0x3d24e2d5	0.040255386
122	0xbbe1e059	-0.0068931994
123	0xbdb336dd	-0.08750699
124	0xbe2319a4	-0.1592775
125	0x3e117e9c	0.14208454
126	0xbe1afc95	-0.15135415
127	0x3d274bd3	0.040843796
